…
The number of parameters is 22.42M
The number of parameters is 22.42M

Evaluation:
The number of parameters is 22.42M
The number of parameters is 22.42M

Evaluation:
[face_test x2]	PSNR: 0.00 (Best: 0.00 @epoch 1)
Total time: 0.39s

The number of parameters is 22.42M
The number of parameters is 22.42M

Evaluation:
[face_test x2]	PSNR: 0.00 (Best: 0.00 @epoch 1)
Total time: 0.40s

The number of parameters is 22.42M
The number of parameters is 22.42M

Evaluation:
[face_test x2]	PSNR: 28.98 (Best: 28.98 @epoch 1)
Total time: 0.40s

DRN(
  (dct): DCT()
  (SRCNN): SRCNN(
    (RCAB1): RCAB(
      (body): Sequential(
        (0): Conv2d(32, 32, kernel_size=(3, 3), stride=(1, 1), padding=(1, 1))
        (1): ReLU(inplace=True)
        (2): Conv2d(32, 32, kernel_size=(3, 3), stride=(1, 1), padding=(1, 1))
        (3): CALayer(
          (avg_pool): AdaptiveAvgPool2d(output_size=1)
          (conv_du): Sequential(
            (0): Conv2d(32, 2, kernel_size=(1, 1), stride=(1, 1))
            (1): ReLU(inplace=True)
            (2): Conv2d(2, 32, kernel_size=(1, 1), stride=(1, 1))
            (3): Sigmoid()
          )
        )
      )
    )
    (RCAB2): RCAB(
      (body): Sequential(
        (0): Conv2d(64, 64, kernel_size=(3, 3), stride=(1, 1), padding=(1, 1))
        (1): ReLU(inplace=True)
        (2): Conv2d(64, 64, kernel_size=(3, 3), stride=(1, 1), padding=(1, 1))
        (3): CALayer(
          (avg_pool): AdaptiveAvgPool2d(output_size=1)
          (conv_du): Sequential(
            (0): Conv2d(64, 4, kernel_size=(1, 1), stride=(1, 1))
            (1): ReLU(inplace=True)
            (2): Conv2d(4, 64, kernel_size=(1, 1), stride=(1, 1))
            (3): Sigmoid()
          )
        )
      )
    )
    (RCAB3): RCAB(
      (body): Sequential(
        (0): Conv2d(128, 128, kernel_size=(3, 3), stride=(1, 1), padding=(1, 1))
        (1): ReLU(inplace=True)
        (2): Conv2d(128, 128, kernel_size=(3, 3), stride=(1, 1), padding=(1, 1))
        (3): CALayer(
          (avg_pool): AdaptiveAvgPool2d(output_size=1)
          (conv_du): Sequential(
            (0): Conv2d(128, 8, kernel_size=(1, 1), stride=(1, 1))
            (1): ReLU(inplace=True)
            (2): Conv2d(8, 128, kernel_size=(1, 1), stride=(1, 1))
            (3): Sigmoid()
          )
        )
      )
    )
    (conv1): Conv2d(3, 32, kernel_size=(9, 9), stride=(1, 1), padding=(4, 4))
    (conv2): Conv2d(256, 32, kernel_size=(5, 5), stride=(1, 1), padding=(2, 2))
    (conv3): Conv2d(32, 3, kernel_size=(5, 5), stride=(1, 1), padding=(2, 2))
    (tail): Conv2d(3, 3, kernel_size=(3, 3), stride=(1, 1), padding=(1, 1))
  )
  (upsample): Upsample(scale_factor=2.0, mode=bicubic)
  (sub_mean): MeanShift(3, 3, kernel_size=(1, 1), stride=(1, 1))
  (head): Conv2d(3, 16, kernel_size=(3, 3), stride=(1, 1), padding=(1, 1))
  (down): ModuleList(
    (0): DownBlock(
      (dual_module): Sequential(
        (0): Sequential(
          (0): Conv2d(16, 16, kernel_size=(3, 3), stride=(2, 2), padding=(1, 1), bias=False)
          (1): LeakyReLU(negative_slope=0.2, inplace=True)
        )
        (1): Conv2d(16, 32, kernel_size=(3, 3), stride=(1, 1), padding=(1, 1), bias=False)
      )
    )
  )
  (up_blocks): ModuleList(
    (0): Sequential(
      (0): RCAB(
        (body): Sequential(
          (0): Conv2d(32, 32, kernel_size=(3, 3), stride=(1, 1), padding=(1, 1))
          (1): ReLU(inplace=True)
          (2): Conv2d(32, 32, kernel_size=(3, 3), stride=(1, 1), padding=(1, 1))
          (3): CALayer(
            (avg_pool): AdaptiveAvgPool2d(output_size=1)
            (conv_du): Sequential(
              (0): Conv2d(32, 2, kernel_size=(1, 1), stride=(1, 1))
              (1): ReLU(inplace=True)
              (2): Conv2d(2, 32, kernel_size=(1, 1), stride=(1, 1))
              (3): Sigmoid()
            )
          )
        )
      )
      (1): RCAB(
        (body): Sequential(
          (0): Conv2d(32, 32, kernel_size=(3, 3), stride=(1, 1), padding=(1, 1))
          (1): ReLU(inplace=True)
          (2): Conv2d(32, 32, kernel_size=(3, 3), stride=(1, 1), padding=(1, 1))
          (3): CALayer(
            (avg_pool): AdaptiveAvgPool2d(output_size=1)
            (conv_du): Sequential(
              (0): Conv2d(32, 2, kernel_size=(1, 1), stride=(1, 1))
              (1): ReLU(inplace=True)
              (2): Conv2d(2, 32, kernel_size=(1, 1), stride=(1, 1))
              (3): Sigmoid()
            )
          )
        )
      )
      (2): RCAB(
        (body): Sequential(
          (0): Conv2d(32, 32, kernel_size=(3, 3), stride=(1, 1), padding=(1, 1))
          (1): ReLU(inplace=True)
          (2): Conv2d(32, 32, kernel_size=(3, 3), stride=(1, 1), padding=(1, 1))
          (3): CALayer(
            (avg_pool): AdaptiveAvgPool2d(output_size=1)
            (conv_du): Sequential(
              (0): Conv2d(32, 2, kernel_size=(1, 1), stride=(1, 1))
              (1): ReLU(inplace=True)
              (2): Conv2d(2, 32, kernel_size=(1, 1), stride=(1, 1))
              (3): Sigmoid()
            )
          )
        )
      )
      (3): RCAB(
        (body): Sequential(
          (0): Conv2d(32, 32, kernel_size=(3, 3), stride=(1, 1), padding=(1, 1))
          (1): ReLU(inplace=True)
          (2): Conv2d(32, 32, kernel_size=(3, 3), stride=(1, 1), padding=(1, 1))
          (3): CALayer(
            (avg_pool): AdaptiveAvgPool2d(output_size=1)
            (conv_du): Sequential(
              (0): Conv2d(32, 2, kernel_size=(1, 1), stride=(1, 1))
              (1): ReLU(inplace=True)
              (2): Conv2d(2, 32, kernel_size=(1, 1), stride=(1, 1))
              (3): Sigmoid()
            )
          )
        )
      )
      (4): RCAB(
        (body): Sequential(
          (0): Conv2d(32, 32, kernel_size=(3, 3), stride=(1, 1), padding=(1, 1))
          (1): ReLU(inplace=True)
          (2): Conv2d(32, 32, kernel_size=(3, 3), stride=(1, 1), padding=(1, 1))
          (3): CALayer(
            (avg_pool): AdaptiveAvgPool2d(output_size=1)
            (conv_du): Sequential(
              (0): Conv2d(32, 2, kernel_size=(1, 1), stride=(1, 1))
              (1): ReLU(inplace=True)
              (2): Conv2d(2, 32, kernel_size=(1, 1), stride=(1, 1))
              (3): Sigmoid()
            )
          )
        )
      )
      (5): RCAB(
        (body): Sequential(
          (0): Conv2d(32, 32, kernel_size=(3, 3), stride=(1, 1), padding=(1, 1))
          (1): ReLU(inplace=True)
          (2): Conv2d(32, 32, kernel_size=(3, 3), stride=(1, 1), padding=(1, 1))
          (3): CALayer(
            (avg_pool): AdaptiveAvgPool2d(output_size=1)
            (conv_du): Sequential(
              (0): Conv2d(32, 2, kernel_size=(1, 1), stride=(1, 1))
              (1): ReLU(inplace=True)
              (2): Conv2d(2, 32, kernel_size=(1, 1), stride=(1, 1))
              (3): Sigmoid()
            )
          )
        )
      )
      (6): RCAB(
        (body): Sequential(
          (0): Conv2d(32, 32, kernel_size=(3, 3), stride=(1, 1), padding=(1, 1))
          (1): ReLU(inplace=True)
          (2): Conv2d(32, 32, kernel_size=(3, 3), stride=(1, 1), padding=(1, 1))
          (3): CALayer(
            (avg_pool): AdaptiveAvgPool2d(output_size=1)
            (conv_du): Sequential(
              (0): Conv2d(32, 2, kernel_size=(1, 1), stride=(1, 1))
              (1): ReLU(inplace=True)
              (2): Conv2d(2, 32, kernel_size=(1, 1), stride=(1, 1))
              (3): Sigmoid()
            )
          )
        )
      )
      (7): RCAB(
        (body): Sequential(
          (0): Conv2d(32, 32, kernel_size=(3, 3), stride=(1, 1), padding=(1, 1))
          (1): ReLU(inplace=True)
          (2): Conv2d(32, 32, kernel_size=(3, 3), stride=(1, 1), padding=(1, 1))
          (3): CALayer(
            (avg_pool): AdaptiveAvgPool2d(output_size=1)
            (conv_du): Sequential(
              (0): Conv2d(32, 2, kernel_size=(1, 1), stride=(1, 1))
              (1): ReLU(inplace=True)
              (2): Conv2d(2, 32, kernel_size=(1, 1), stride=(1, 1))
              (3): Sigmoid()
            )
          )
        )
      )
      (8): RCAB(
        (body): Sequential(
          (0): Conv2d(32, 32, kernel_size=(3, 3), stride=(1, 1), padding=(1, 1))
          (1): ReLU(inplace=True)
          (2): Conv2d(32, 32, kernel_size=(3, 3), stride=(1, 1), padding=(1, 1))
          (3): CALayer(
            (avg_pool): AdaptiveAvgPool2d(output_size=1)
            (conv_du): Sequential(
              (0): Conv2d(32, 2, kernel_size=(1, 1), stride=(1, 1))
              (1): ReLU(inplace=True)
              (2): Conv2d(2, 32, kernel_size=(1, 1), stride=(1, 1))
              (3): Sigmoid()
            )
          )
        )
      )
      (9): RCAB(
        (body): Sequential(
          (0): Conv2d(32, 32, kernel_size=(3, 3), stride=(1, 1), padding=(1, 1))
          (1): ReLU(inplace=True)
          (2): Conv2d(32, 32, kernel_size=(3, 3), stride=(1, 1), padding=(1, 1))
          (3): CALayer(
            (avg_pool): AdaptiveAvgPool2d(output_size=1)
            (conv_du): Sequential(
              (0): Conv2d(32, 2, kernel_size=(1, 1), stride=(1, 1))
              (1): ReLU(inplace=True)
              (2): Conv2d(2, 32, kernel_size=(1, 1), stride=(1, 1))
              (3): Sigmoid()
            )
          )
        )
      )
      (10): RCAB(
        (body): Sequential(
          (0): Conv2d(32, 32, kernel_size=(3, 3), stride=(1, 1), padding=(1, 1))
          (1): ReLU(inplace=True)
          (2): Conv2d(32, 32, kernel_size=(3, 3), stride=(1, 1), padding=(1, 1))
          (3): CALayer(
            (avg_pool): AdaptiveAvgPool2d(output_size=1)
            (conv_du): Sequential(
              (0): Conv2d(32, 2, kernel_size=(1, 1), stride=(1, 1))
              (1): ReLU(inplace=True)
              (2): Conv2d(2, 32, kernel_size=(1, 1), stride=(1, 1))
              (3): Sigmoid()
            )
          )
        )
      )
      (11): RCAB(
        (body): Sequential(
          (0): Conv2d(32, 32, kernel_size=(3, 3), stride=(1, 1), padding=(1, 1))
          (1): ReLU(inplace=True)
          (2): Conv2d(32, 32, kernel_size=(3, 3), stride=(1, 1), padding=(1, 1))
          (3): CALayer(
            (avg_pool): AdaptiveAvgPool2d(output_size=1)
            (conv_du): Sequential(
              (0): Conv2d(32, 2, kernel_size=(1, 1), stride=(1, 1))
              (1): ReLU(inplace=True)
              (2): Conv2d(2, 32, kernel_size=(1, 1), stride=(1, 1))
              (3): Sigmoid()
            )
          )
        )
      )
      (12): RCAB(
        (body): Sequential(
          (0): Conv2d(32, 32, kernel_size=(3, 3), stride=(1, 1), padding=(1, 1))
          (1): ReLU(inplace=True)
          (2): Conv2d(32, 32, kernel_size=(3, 3), stride=(1, 1), padding=(1, 1))
          (3): CALayer(
            (avg_pool): AdaptiveAvgPool2d(output_size=1)
            (conv_du): Sequential(
              (0): Conv2d(32, 2, kernel_size=(1, 1), stride=(1, 1))
              (1): ReLU(inplace=True)
              (2): Conv2d(2, 32, kernel_size=(1, 1), stride=(1, 1))
              (3): Sigmoid()
            )
          )
        )
      )
      (13): RCAB(
        (body): Sequential(
          (0): Conv2d(32, 32, kernel_size=(3, 3), stride=(1, 1), padding=(1, 1))
          (1): ReLU(inplace=True)
          (2): Conv2d(32, 32, kernel_size=(3, 3), stride=(1, 1), padding=(1, 1))
          (3): CALayer(
            (avg_pool): AdaptiveAvgPool2d(output_size=1)
            (conv_du): Sequential(
              (0): Conv2d(32, 2, kernel_size=(1, 1), stride=(1, 1))
              (1): ReLU(inplace=True)
              (2): Conv2d(2, 32, kernel_size=(1, 1), stride=(1, 1))
              (3): Sigmoid()
            )
          )
        )
      )
      (14): RCAB(
        (body): Sequential(
          (0): Conv2d(32, 32, kernel_size=(3, 3), stride=(1, 1), padding=(1, 1))
          (1): ReLU(inplace=True)
          (2): Conv2d(32, 32, kernel_size=(3, 3), stride=(1, 1), padding=(1, 1))
          (3): CALayer(
            (avg_pool): AdaptiveAvgPool2d(output_size=1)
            (conv_du): Sequential(
              (0): Conv2d(32, 2, kernel_size=(1, 1), stride=(1, 1))
              (1): ReLU(inplace=True)
              (2): Conv2d(2, 32, kernel_size=(1, 1), stride=(1, 1))
              (3): Sigmoid()
            )
          )
        )
      )
      (15): RCAB(
        (body): Sequential(
          (0): Conv2d(32, 32, kernel_size=(3, 3), stride=(1, 1), padding=(1, 1))
          (1): ReLU(inplace=True)
          (2): Conv2d(32, 32, kernel_size=(3, 3), stride=(1, 1), padding=(1, 1))
          (3): CALayer(
            (avg_pool): AdaptiveAvgPool2d(output_size=1)
            (conv_du): Sequential(
              (0): Conv2d(32, 2, kernel_size=(1, 1), stride=(1, 1))
              (1): ReLU(inplace=True)
              (2): Conv2d(2, 32, kernel_size=(1, 1), stride=(1, 1))
              (3): Sigmoid()
            )
          )
        )
      )
      (16): RCAB(
        (body): Sequential(
          (0): Conv2d(32, 32, kernel_size=(3, 3), stride=(1, 1), padding=(1, 1))
          (1): ReLU(inplace=True)
          (2): Conv2d(32, 32, kernel_size=(3, 3), stride=(1, 1), padding=(1, 1))
          (3): CALayer(
            (avg_pool): AdaptiveAvgPool2d(output_size=1)
            (conv_du): Sequential(
              (0): Conv2d(32, 2, kernel_size=(1, 1), stride=(1, 1))
              (1): ReLU(inplace=True)
              (2): Conv2d(2, 32, kernel_size=(1, 1), stride=(1, 1))
              (3): Sigmoid()
            )
          )
        )
      )
      (17): RCAB(
        (body): Sequential(
          (0): Conv2d(32, 32, kernel_size=(3, 3), stride=(1, 1), padding=(1, 1))
          (1): ReLU(inplace=True)
          (2): Conv2d(32, 32, kernel_size=(3, 3), stride=(1, 1), padding=(1, 1))
          (3): CALayer(
            (avg_pool): AdaptiveAvgPool2d(output_size=1)
            (conv_du): Sequential(
              (0): Conv2d(32, 2, kernel_size=(1, 1), stride=(1, 1))
              (1): ReLU(inplace=True)
              (2): Conv2d(2, 32, kernel_size=(1, 1), stride=(1, 1))
              (3): Sigmoid()
            )
          )
        )
      )
      (18): RCAB(
        (body): Sequential(
          (0): Conv2d(32, 32, kernel_size=(3, 3), stride=(1, 1), padding=(1, 1))
          (1): ReLU(inplace=True)
          (2): Conv2d(32, 32, kernel_size=(3, 3), stride=(1, 1), padding=(1, 1))
          (3): CALayer(
            (avg_pool): AdaptiveAvgPool2d(output_size=1)
            (conv_du): Sequential(
              (0): Conv2d(32, 2, kernel_size=(1, 1), stride=(1, 1))
              (1): ReLU(inplace=True)
              (2): Conv2d(2, 32, kernel_size=(1, 1), stride=(1, 1))
              (3): Sigmoid()
            )
          )
        )
      )
      (19): RCAB(
        (body): Sequential(
          (0): Conv2d(32, 32, kernel_size=(3, 3), stride=(1, 1), padding=(1, 1))
          (1): ReLU(inplace=True)
          (2): Conv2d(32, 32, kernel_size=(3, 3), stride=(1, 1), padding=(1, 1))
          (3): CALayer(
            (avg_pool): AdaptiveAvgPool2d(output_size=1)
            (conv_du): Sequential(
              (0): Conv2d(32, 2, kernel_size=(1, 1), stride=(1, 1))
              (1): ReLU(inplace=True)
              (2): Conv2d(2, 32, kernel_size=(1, 1), stride=(1, 1))
              (3): Sigmoid()
            )
          )
        )
      )
      (20): RCAB(
        (body): Sequential(
          (0): Conv2d(32, 32, kernel_size=(3, 3), stride=(1, 1), padding=(1, 1))
          (1): ReLU(inplace=True)
          (2): Conv2d(32, 32, kernel_size=(3, 3), stride=(1, 1), padding=(1, 1))
          (3): CALayer(
            (avg_pool): AdaptiveAvgPool2d(output_size=1)
            (conv_du): Sequential(
              (0): Conv2d(32, 2, kernel_size=(1, 1), stride=(1, 1))
              (1): ReLU(inplace=True)
              (2): Conv2d(2, 32, kernel_size=(1, 1), stride=(1, 1))
              (3): Sigmoid()
            )
          )
        )
      )
      (21): RCAB(
        (body): Sequential(
          (0): Conv2d(32, 32, kernel_size=(3, 3), stride=(1, 1), padding=(1, 1))
          (1): ReLU(inplace=True)
          (2): Conv2d(32, 32, kernel_size=(3, 3), stride=(1, 1), padding=(1, 1))
          (3): CALayer(
            (avg_pool): AdaptiveAvgPool2d(output_size=1)
            (conv_du): Sequential(
              (0): Conv2d(32, 2, kernel_size=(1, 1), stride=(1, 1))
              (1): ReLU(inplace=True)
              (2): Conv2d(2, 32, kernel_size=(1, 1), stride=(1, 1))
              (3): Sigmoid()
            )
          )
        )
      )
      (22): RCAB(
        (body): Sequential(
          (0): Conv2d(32, 32, kernel_size=(3, 3), stride=(1, 1), padding=(1, 1))
          (1): ReLU(inplace=True)
          (2): Conv2d(32, 32, kernel_size=(3, 3), stride=(1, 1), padding=(1, 1))
          (3): CALayer(
            (avg_pool): AdaptiveAvgPool2d(output_size=1)
            (conv_du): Sequential(
              (0): Conv2d(32, 2, kernel_size=(1, 1), stride=(1, 1))
              (1): ReLU(inplace=True)
              (2): Conv2d(2, 32, kernel_size=(1, 1), stride=(1, 1))
              (3): Sigmoid()
            )
          )
        )
      )
      (23): RCAB(
        (body): Sequential(
          (0): Conv2d(32, 32, kernel_size=(3, 3), stride=(1, 1), padding=(1, 1))
          (1): ReLU(inplace=True)
          (2): Conv2d(32, 32, kernel_size=(3, 3), stride=(1, 1), padding=(1, 1))
          (3): CALayer(
            (avg_pool): AdaptiveAvgPool2d(output_size=1)
            (conv_du): Sequential(
              (0): Conv2d(32, 2, kernel_size=(1, 1), stride=(1, 1))
              (1): ReLU(inplace=True)
              (2): Conv2d(2, 32, kernel_size=(1, 1), stride=(1, 1))
              (3): Sigmoid()
            )
          )
        )
      )
      (24): RCAB(
        (body): Sequential(
          (0): Conv2d(32, 32, kernel_size=(3, 3), stride=(1, 1), padding=(1, 1))
          (1): ReLU(inplace=True)
          (2): Conv2d(32, 32, kernel_size=(3, 3), stride=(1, 1), padding=(1, 1))
          (3): CALayer(
            (avg_pool): AdaptiveAvgPool2d(output_size=1)
            (conv_du): Sequential(
              (0): Conv2d(32, 2, kernel_size=(1, 1), stride=(1, 1))
              (1): ReLU(inplace=True)
              (2): Conv2d(2, 32, kernel_size=(1, 1), stride=(1, 1))
              (3): Sigmoid()
            )
          )
        )
      )
      (25): RCAB(
        (body): Sequential(
          (0): Conv2d(32, 32, kernel_size=(3, 3), stride=(1, 1), padding=(1, 1))
          (1): ReLU(inplace=True)
          (2): Conv2d(32, 32, kernel_size=(3, 3), stride=(1, 1), padding=(1, 1))
          (3): CALayer(
            (avg_pool): AdaptiveAvgPool2d(output_size=1)
            (conv_du): Sequential(
              (0): Conv2d(32, 2, kernel_size=(1, 1), stride=(1, 1))
              (1): ReLU(inplace=True)
              (2): Conv2d(2, 32, kernel_size=(1, 1), stride=(1, 1))
              (3): Sigmoid()
            )
          )
        )
      )
      (26): RCAB(
        (body): Sequential(
          (0): Conv2d(32, 32, kernel_size=(3, 3), stride=(1, 1), padding=(1, 1))
          (1): ReLU(inplace=True)
          (2): Conv2d(32, 32, kernel_size=(3, 3), stride=(1, 1), padding=(1, 1))
          (3): CALayer(
            (avg_pool): AdaptiveAvgPool2d(output_size=1)
            (conv_du): Sequential(
              (0): Conv2d(32, 2, kernel_size=(1, 1), stride=(1, 1))
              (1): ReLU(inplace=True)
              (2): Conv2d(2, 32, kernel_size=(1, 1), stride=(1, 1))
              (3): Sigmoid()
            )
          )
        )
      )
      (27): RCAB(
        (body): Sequential(
          (0): Conv2d(32, 32, kernel_size=(3, 3), stride=(1, 1), padding=(1, 1))
          (1): ReLU(inplace=True)
          (2): Conv2d(32, 32, kernel_size=(3, 3), stride=(1, 1), padding=(1, 1))
          (3): CALayer(
            (avg_pool): AdaptiveAvgPool2d(output_size=1)
            (conv_du): Sequential(
              (0): Conv2d(32, 2, kernel_size=(1, 1), stride=(1, 1))
              (1): ReLU(inplace=True)
              (2): Conv2d(2, 32, kernel_size=(1, 1), stride=(1, 1))
              (3): Sigmoid()
            )
          )
        )
      )
      (28): RCAB(
        (body): Sequential(
          (0): Conv2d(32, 32, kernel_size=(3, 3), stride=(1, 1), padding=(1, 1))
          (1): ReLU(inplace=True)
          (2): Conv2d(32, 32, kernel_size=(3, 3), stride=(1, 1), padding=(1, 1))
          (3): CALayer(
            (avg_pool): AdaptiveAvgPool2d(output_size=1)
            (conv_du): Sequential(
              (0): Conv2d(32, 2, kernel_size=(1, 1), stride=(1, 1))
              (1): ReLU(inplace=True)
              (2): Conv2d(2, 32, kernel_size=(1, 1), stride=(1, 1))
              (3): Sigmoid()
            )
          )
        )
      )
      (29): RCAB(
        (body): Sequential(
          (0): Conv2d(32, 32, kernel_size=(3, 3), stride=(1, 1), padding=(1, 1))
          (1): ReLU(inplace=True)
          (2): Conv2d(32, 32, kernel_size=(3, 3), stride=(1, 1), padding=(1, 1))
          (3): CALayer(
            (avg_pool): AdaptiveAvgPool2d(output_size=1)
            (conv_du): Sequential(
              (0): Conv2d(32, 2, kernel_size=(1, 1), stride=(1, 1))
              (1): ReLU(inplace=True)
              (2): Conv2d(2, 32, kernel_size=(1, 1), stride=(1, 1))
              (3): Sigmoid()
            )
          )
        )
      )
      (30): Upsampler(
        (0): Conv2d(32, 128, kernel_size=(3, 3), stride=(1, 1), padding=(1, 1))
        (1): PixelShuffle(upscale_factor=2)
      )
      (31): Conv2d(32, 16, kernel_size=(1, 1), stride=(1, 1))
    )
  )
  (tail): ModuleList(
    (0): Conv2d(32, 3, kernel_size=(3, 3), stride=(1, 1), padding=(1, 1))
    (1): Conv2d(32, 3, kernel_size=(3, 3), stride=(1, 1), padding=(1, 1))
  )
  (add_mean): MeanShift(3, 3, kernel_size=(1, 1), stride=(1, 1))
)
[DownBlock(
  (dual_module): Sequential(
    (0): Sequential(
      (0): Conv2d(3, 16, kernel_size=(3, 3), stride=(2, 2), padding=(1, 1), bias=False)
      (1): LeakyReLU(negative_slope=0.2, inplace=True)
    )
    (1): Conv2d(16, 3, kernel_size=(3, 3), stride=(1, 1), padding=(1, 1), bias=False)
  )
)]
The number of parameters is 1.21M
[Epoch 1]	Learning rate: 1.00e-4
DRN(
  (dct): DCT()
  (SRCNN): NewCNN(
    (RCAB1): RCAB(
      (body): Sequential(
        (0): Conv2d(32, 32, kernel_size=(3, 3), stride=(1, 1), padding=(1, 1))
        (1): ReLU(inplace=True)
        (2): Conv2d(32, 32, kernel_size=(3, 3), stride=(1, 1), padding=(1, 1))
        (3): CALayer(
          (avg_pool): AdaptiveAvgPool2d(output_size=1)
          (conv_du): Sequential(
            (0): Conv2d(32, 2, kernel_size=(1, 1), stride=(1, 1))
            (1): ReLU(inplace=True)
            (2): Conv2d(2, 32, kernel_size=(1, 1), stride=(1, 1))
            (3): Sigmoid()
          )
        )
      )
    )
    (RCAB2): RCAB(
      (body): Sequential(
        (0): Conv2d(64, 64, kernel_size=(3, 3), stride=(1, 1), padding=(1, 1))
        (1): ReLU(inplace=True)
        (2): Conv2d(64, 64, kernel_size=(3, 3), stride=(1, 1), padding=(1, 1))
        (3): CALayer(
          (avg_pool): AdaptiveAvgPool2d(output_size=1)
          (conv_du): Sequential(
            (0): Conv2d(64, 4, kernel_size=(1, 1), stride=(1, 1))
            (1): ReLU(inplace=True)
            (2): Conv2d(4, 64, kernel_size=(1, 1), stride=(1, 1))
            (3): Sigmoid()
          )
        )
      )
    )
    (RCAB3): RCAB(
      (body): Sequential(
        (0): Conv2d(128, 128, kernel_size=(3, 3), stride=(1, 1), padding=(1, 1))
        (1): ReLU(inplace=True)
        (2): Conv2d(128, 128, kernel_size=(3, 3), stride=(1, 1), padding=(1, 1))
        (3): CALayer(
          (avg_pool): AdaptiveAvgPool2d(output_size=1)
          (conv_du): Sequential(
            (0): Conv2d(128, 8, kernel_size=(1, 1), stride=(1, 1))
            (1): ReLU(inplace=True)
            (2): Conv2d(8, 128, kernel_size=(1, 1), stride=(1, 1))
            (3): Sigmoid()
          )
        )
      )
    )
    (conv1): Conv2d(3, 32, kernel_size=(9, 9), stride=(1, 1), padding=(4, 4))
    (conv2): Conv2d(256, 32, kernel_size=(5, 5), stride=(1, 1), padding=(2, 2))
    (conv3): Conv2d(32, 3, kernel_size=(5, 5), stride=(1, 1), padding=(2, 2))
    (tail): Conv2d(3, 3, kernel_size=(3, 3), stride=(1, 1), padding=(1, 1))
  )
  (upsample): Upsample(scale_factor=2.0, mode=bicubic)
  (sub_mean): MeanShift(3, 3, kernel_size=(1, 1), stride=(1, 1))
  (head): Conv2d(3, 16, kernel_size=(3, 3), stride=(1, 1), padding=(1, 1))
  (down): ModuleList(
    (0): DownBlock(
      (dual_module): Sequential(
        (0): Sequential(
          (0): Conv2d(16, 16, kernel_size=(3, 3), stride=(2, 2), padding=(1, 1), bias=False)
          (1): LeakyReLU(negative_slope=0.2, inplace=True)
        )
        (1): Conv2d(16, 32, kernel_size=(3, 3), stride=(1, 1), padding=(1, 1), bias=False)
      )
    )
  )
  (up_blocks): ModuleList(
    (0): Sequential(
      (0): RCAB(
        (body): Sequential(
          (0): Conv2d(32, 32, kernel_size=(3, 3), stride=(1, 1), padding=(1, 1))
          (1): ReLU(inplace=True)
          (2): Conv2d(32, 32, kernel_size=(3, 3), stride=(1, 1), padding=(1, 1))
          (3): CALayer(
            (avg_pool): AdaptiveAvgPool2d(output_size=1)
            (conv_du): Sequential(
              (0): Conv2d(32, 2, kernel_size=(1, 1), stride=(1, 1))
              (1): ReLU(inplace=True)
              (2): Conv2d(2, 32, kernel_size=(1, 1), stride=(1, 1))
              (3): Sigmoid()
            )
          )
        )
      )
      (1): RCAB(
        (body): Sequential(
          (0): Conv2d(32, 32, kernel_size=(3, 3), stride=(1, 1), padding=(1, 1))
          (1): ReLU(inplace=True)
          (2): Conv2d(32, 32, kernel_size=(3, 3), stride=(1, 1), padding=(1, 1))
          (3): CALayer(
            (avg_pool): AdaptiveAvgPool2d(output_size=1)
            (conv_du): Sequential(
              (0): Conv2d(32, 2, kernel_size=(1, 1), stride=(1, 1))
              (1): ReLU(inplace=True)
              (2): Conv2d(2, 32, kernel_size=(1, 1), stride=(1, 1))
              (3): Sigmoid()
            )
          )
        )
      )
      (2): RCAB(
        (body): Sequential(
          (0): Conv2d(32, 32, kernel_size=(3, 3), stride=(1, 1), padding=(1, 1))
          (1): ReLU(inplace=True)
          (2): Conv2d(32, 32, kernel_size=(3, 3), stride=(1, 1), padding=(1, 1))
          (3): CALayer(
            (avg_pool): AdaptiveAvgPool2d(output_size=1)
            (conv_du): Sequential(
              (0): Conv2d(32, 2, kernel_size=(1, 1), stride=(1, 1))
              (1): ReLU(inplace=True)
              (2): Conv2d(2, 32, kernel_size=(1, 1), stride=(1, 1))
              (3): Sigmoid()
            )
          )
        )
      )
      (3): RCAB(
        (body): Sequential(
          (0): Conv2d(32, 32, kernel_size=(3, 3), stride=(1, 1), padding=(1, 1))
          (1): ReLU(inplace=True)
          (2): Conv2d(32, 32, kernel_size=(3, 3), stride=(1, 1), padding=(1, 1))
          (3): CALayer(
            (avg_pool): AdaptiveAvgPool2d(output_size=1)
            (conv_du): Sequential(
              (0): Conv2d(32, 2, kernel_size=(1, 1), stride=(1, 1))
              (1): ReLU(inplace=True)
              (2): Conv2d(2, 32, kernel_size=(1, 1), stride=(1, 1))
              (3): Sigmoid()
            )
          )
        )
      )
      (4): RCAB(
        (body): Sequential(
          (0): Conv2d(32, 32, kernel_size=(3, 3), stride=(1, 1), padding=(1, 1))
          (1): ReLU(inplace=True)
          (2): Conv2d(32, 32, kernel_size=(3, 3), stride=(1, 1), padding=(1, 1))
          (3): CALayer(
            (avg_pool): AdaptiveAvgPool2d(output_size=1)
            (conv_du): Sequential(
              (0): Conv2d(32, 2, kernel_size=(1, 1), stride=(1, 1))
              (1): ReLU(inplace=True)
              (2): Conv2d(2, 32, kernel_size=(1, 1), stride=(1, 1))
              (3): Sigmoid()
            )
          )
        )
      )
      (5): RCAB(
        (body): Sequential(
          (0): Conv2d(32, 32, kernel_size=(3, 3), stride=(1, 1), padding=(1, 1))
          (1): ReLU(inplace=True)
          (2): Conv2d(32, 32, kernel_size=(3, 3), stride=(1, 1), padding=(1, 1))
          (3): CALayer(
            (avg_pool): AdaptiveAvgPool2d(output_size=1)
            (conv_du): Sequential(
              (0): Conv2d(32, 2, kernel_size=(1, 1), stride=(1, 1))
              (1): ReLU(inplace=True)
              (2): Conv2d(2, 32, kernel_size=(1, 1), stride=(1, 1))
              (3): Sigmoid()
            )
          )
        )
      )
      (6): RCAB(
        (body): Sequential(
          (0): Conv2d(32, 32, kernel_size=(3, 3), stride=(1, 1), padding=(1, 1))
          (1): ReLU(inplace=True)
          (2): Conv2d(32, 32, kernel_size=(3, 3), stride=(1, 1), padding=(1, 1))
          (3): CALayer(
            (avg_pool): AdaptiveAvgPool2d(output_size=1)
            (conv_du): Sequential(
              (0): Conv2d(32, 2, kernel_size=(1, 1), stride=(1, 1))
              (1): ReLU(inplace=True)
              (2): Conv2d(2, 32, kernel_size=(1, 1), stride=(1, 1))
              (3): Sigmoid()
            )
          )
        )
      )
      (7): RCAB(
        (body): Sequential(
          (0): Conv2d(32, 32, kernel_size=(3, 3), stride=(1, 1), padding=(1, 1))
          (1): ReLU(inplace=True)
          (2): Conv2d(32, 32, kernel_size=(3, 3), stride=(1, 1), padding=(1, 1))
          (3): CALayer(
            (avg_pool): AdaptiveAvgPool2d(output_size=1)
            (conv_du): Sequential(
              (0): Conv2d(32, 2, kernel_size=(1, 1), stride=(1, 1))
              (1): ReLU(inplace=True)
              (2): Conv2d(2, 32, kernel_size=(1, 1), stride=(1, 1))
              (3): Sigmoid()
            )
          )
        )
      )
      (8): RCAB(
        (body): Sequential(
          (0): Conv2d(32, 32, kernel_size=(3, 3), stride=(1, 1), padding=(1, 1))
          (1): ReLU(inplace=True)
          (2): Conv2d(32, 32, kernel_size=(3, 3), stride=(1, 1), padding=(1, 1))
          (3): CALayer(
            (avg_pool): AdaptiveAvgPool2d(output_size=1)
            (conv_du): Sequential(
              (0): Conv2d(32, 2, kernel_size=(1, 1), stride=(1, 1))
              (1): ReLU(inplace=True)
              (2): Conv2d(2, 32, kernel_size=(1, 1), stride=(1, 1))
              (3): Sigmoid()
            )
          )
        )
      )
      (9): RCAB(
        (body): Sequential(
          (0): Conv2d(32, 32, kernel_size=(3, 3), stride=(1, 1), padding=(1, 1))
          (1): ReLU(inplace=True)
          (2): Conv2d(32, 32, kernel_size=(3, 3), stride=(1, 1), padding=(1, 1))
          (3): CALayer(
            (avg_pool): AdaptiveAvgPool2d(output_size=1)
            (conv_du): Sequential(
              (0): Conv2d(32, 2, kernel_size=(1, 1), stride=(1, 1))
              (1): ReLU(inplace=True)
              (2): Conv2d(2, 32, kernel_size=(1, 1), stride=(1, 1))
              (3): Sigmoid()
            )
          )
        )
      )
      (10): RCAB(
        (body): Sequential(
          (0): Conv2d(32, 32, kernel_size=(3, 3), stride=(1, 1), padding=(1, 1))
          (1): ReLU(inplace=True)
          (2): Conv2d(32, 32, kernel_size=(3, 3), stride=(1, 1), padding=(1, 1))
          (3): CALayer(
            (avg_pool): AdaptiveAvgPool2d(output_size=1)
            (conv_du): Sequential(
              (0): Conv2d(32, 2, kernel_size=(1, 1), stride=(1, 1))
              (1): ReLU(inplace=True)
              (2): Conv2d(2, 32, kernel_size=(1, 1), stride=(1, 1))
              (3): Sigmoid()
            )
          )
        )
      )
      (11): RCAB(
        (body): Sequential(
          (0): Conv2d(32, 32, kernel_size=(3, 3), stride=(1, 1), padding=(1, 1))
          (1): ReLU(inplace=True)
          (2): Conv2d(32, 32, kernel_size=(3, 3), stride=(1, 1), padding=(1, 1))
          (3): CALayer(
            (avg_pool): AdaptiveAvgPool2d(output_size=1)
            (conv_du): Sequential(
              (0): Conv2d(32, 2, kernel_size=(1, 1), stride=(1, 1))
              (1): ReLU(inplace=True)
              (2): Conv2d(2, 32, kernel_size=(1, 1), stride=(1, 1))
              (3): Sigmoid()
            )
          )
        )
      )
      (12): RCAB(
        (body): Sequential(
          (0): Conv2d(32, 32, kernel_size=(3, 3), stride=(1, 1), padding=(1, 1))
          (1): ReLU(inplace=True)
          (2): Conv2d(32, 32, kernel_size=(3, 3), stride=(1, 1), padding=(1, 1))
          (3): CALayer(
            (avg_pool): AdaptiveAvgPool2d(output_size=1)
            (conv_du): Sequential(
              (0): Conv2d(32, 2, kernel_size=(1, 1), stride=(1, 1))
              (1): ReLU(inplace=True)
              (2): Conv2d(2, 32, kernel_size=(1, 1), stride=(1, 1))
              (3): Sigmoid()
            )
          )
        )
      )
      (13): RCAB(
        (body): Sequential(
          (0): Conv2d(32, 32, kernel_size=(3, 3), stride=(1, 1), padding=(1, 1))
          (1): ReLU(inplace=True)
          (2): Conv2d(32, 32, kernel_size=(3, 3), stride=(1, 1), padding=(1, 1))
          (3): CALayer(
            (avg_pool): AdaptiveAvgPool2d(output_size=1)
            (conv_du): Sequential(
              (0): Conv2d(32, 2, kernel_size=(1, 1), stride=(1, 1))
              (1): ReLU(inplace=True)
              (2): Conv2d(2, 32, kernel_size=(1, 1), stride=(1, 1))
              (3): Sigmoid()
            )
          )
        )
      )
      (14): RCAB(
        (body): Sequential(
          (0): Conv2d(32, 32, kernel_size=(3, 3), stride=(1, 1), padding=(1, 1))
          (1): ReLU(inplace=True)
          (2): Conv2d(32, 32, kernel_size=(3, 3), stride=(1, 1), padding=(1, 1))
          (3): CALayer(
            (avg_pool): AdaptiveAvgPool2d(output_size=1)
            (conv_du): Sequential(
              (0): Conv2d(32, 2, kernel_size=(1, 1), stride=(1, 1))
              (1): ReLU(inplace=True)
              (2): Conv2d(2, 32, kernel_size=(1, 1), stride=(1, 1))
              (3): Sigmoid()
            )
          )
        )
      )
      (15): RCAB(
        (body): Sequential(
          (0): Conv2d(32, 32, kernel_size=(3, 3), stride=(1, 1), padding=(1, 1))
          (1): ReLU(inplace=True)
          (2): Conv2d(32, 32, kernel_size=(3, 3), stride=(1, 1), padding=(1, 1))
          (3): CALayer(
            (avg_pool): AdaptiveAvgPool2d(output_size=1)
            (conv_du): Sequential(
              (0): Conv2d(32, 2, kernel_size=(1, 1), stride=(1, 1))
              (1): ReLU(inplace=True)
              (2): Conv2d(2, 32, kernel_size=(1, 1), stride=(1, 1))
              (3): Sigmoid()
            )
          )
        )
      )
      (16): RCAB(
        (body): Sequential(
          (0): Conv2d(32, 32, kernel_size=(3, 3), stride=(1, 1), padding=(1, 1))
          (1): ReLU(inplace=True)
          (2): Conv2d(32, 32, kernel_size=(3, 3), stride=(1, 1), padding=(1, 1))
          (3): CALayer(
            (avg_pool): AdaptiveAvgPool2d(output_size=1)
            (conv_du): Sequential(
              (0): Conv2d(32, 2, kernel_size=(1, 1), stride=(1, 1))
              (1): ReLU(inplace=True)
              (2): Conv2d(2, 32, kernel_size=(1, 1), stride=(1, 1))
              (3): Sigmoid()
            )
          )
        )
      )
      (17): RCAB(
        (body): Sequential(
          (0): Conv2d(32, 32, kernel_size=(3, 3), stride=(1, 1), padding=(1, 1))
          (1): ReLU(inplace=True)
          (2): Conv2d(32, 32, kernel_size=(3, 3), stride=(1, 1), padding=(1, 1))
          (3): CALayer(
            (avg_pool): AdaptiveAvgPool2d(output_size=1)
            (conv_du): Sequential(
              (0): Conv2d(32, 2, kernel_size=(1, 1), stride=(1, 1))
              (1): ReLU(inplace=True)
              (2): Conv2d(2, 32, kernel_size=(1, 1), stride=(1, 1))
              (3): Sigmoid()
            )
          )
        )
      )
      (18): RCAB(
        (body): Sequential(
          (0): Conv2d(32, 32, kernel_size=(3, 3), stride=(1, 1), padding=(1, 1))
          (1): ReLU(inplace=True)
          (2): Conv2d(32, 32, kernel_size=(3, 3), stride=(1, 1), padding=(1, 1))
          (3): CALayer(
            (avg_pool): AdaptiveAvgPool2d(output_size=1)
            (conv_du): Sequential(
              (0): Conv2d(32, 2, kernel_size=(1, 1), stride=(1, 1))
              (1): ReLU(inplace=True)
              (2): Conv2d(2, 32, kernel_size=(1, 1), stride=(1, 1))
              (3): Sigmoid()
            )
          )
        )
      )
      (19): RCAB(
        (body): Sequential(
          (0): Conv2d(32, 32, kernel_size=(3, 3), stride=(1, 1), padding=(1, 1))
          (1): ReLU(inplace=True)
          (2): Conv2d(32, 32, kernel_size=(3, 3), stride=(1, 1), padding=(1, 1))
          (3): CALayer(
            (avg_pool): AdaptiveAvgPool2d(output_size=1)
            (conv_du): Sequential(
              (0): Conv2d(32, 2, kernel_size=(1, 1), stride=(1, 1))
              (1): ReLU(inplace=True)
              (2): Conv2d(2, 32, kernel_size=(1, 1), stride=(1, 1))
              (3): Sigmoid()
            )
          )
        )
      )
      (20): RCAB(
        (body): Sequential(
          (0): Conv2d(32, 32, kernel_size=(3, 3), stride=(1, 1), padding=(1, 1))
          (1): ReLU(inplace=True)
          (2): Conv2d(32, 32, kernel_size=(3, 3), stride=(1, 1), padding=(1, 1))
          (3): CALayer(
            (avg_pool): AdaptiveAvgPool2d(output_size=1)
            (conv_du): Sequential(
              (0): Conv2d(32, 2, kernel_size=(1, 1), stride=(1, 1))
              (1): ReLU(inplace=True)
              (2): Conv2d(2, 32, kernel_size=(1, 1), stride=(1, 1))
              (3): Sigmoid()
            )
          )
        )
      )
      (21): RCAB(
        (body): Sequential(
          (0): Conv2d(32, 32, kernel_size=(3, 3), stride=(1, 1), padding=(1, 1))
          (1): ReLU(inplace=True)
          (2): Conv2d(32, 32, kernel_size=(3, 3), stride=(1, 1), padding=(1, 1))
          (3): CALayer(
            (avg_pool): AdaptiveAvgPool2d(output_size=1)
            (conv_du): Sequential(
              (0): Conv2d(32, 2, kernel_size=(1, 1), stride=(1, 1))
              (1): ReLU(inplace=True)
              (2): Conv2d(2, 32, kernel_size=(1, 1), stride=(1, 1))
              (3): Sigmoid()
            )
          )
        )
      )
      (22): RCAB(
        (body): Sequential(
          (0): Conv2d(32, 32, kernel_size=(3, 3), stride=(1, 1), padding=(1, 1))
          (1): ReLU(inplace=True)
          (2): Conv2d(32, 32, kernel_size=(3, 3), stride=(1, 1), padding=(1, 1))
          (3): CALayer(
            (avg_pool): AdaptiveAvgPool2d(output_size=1)
            (conv_du): Sequential(
              (0): Conv2d(32, 2, kernel_size=(1, 1), stride=(1, 1))
              (1): ReLU(inplace=True)
              (2): Conv2d(2, 32, kernel_size=(1, 1), stride=(1, 1))
              (3): Sigmoid()
            )
          )
        )
      )
      (23): RCAB(
        (body): Sequential(
          (0): Conv2d(32, 32, kernel_size=(3, 3), stride=(1, 1), padding=(1, 1))
          (1): ReLU(inplace=True)
          (2): Conv2d(32, 32, kernel_size=(3, 3), stride=(1, 1), padding=(1, 1))
          (3): CALayer(
            (avg_pool): AdaptiveAvgPool2d(output_size=1)
            (conv_du): Sequential(
              (0): Conv2d(32, 2, kernel_size=(1, 1), stride=(1, 1))
              (1): ReLU(inplace=True)
              (2): Conv2d(2, 32, kernel_size=(1, 1), stride=(1, 1))
              (3): Sigmoid()
            )
          )
        )
      )
      (24): RCAB(
        (body): Sequential(
          (0): Conv2d(32, 32, kernel_size=(3, 3), stride=(1, 1), padding=(1, 1))
          (1): ReLU(inplace=True)
          (2): Conv2d(32, 32, kernel_size=(3, 3), stride=(1, 1), padding=(1, 1))
          (3): CALayer(
            (avg_pool): AdaptiveAvgPool2d(output_size=1)
            (conv_du): Sequential(
              (0): Conv2d(32, 2, kernel_size=(1, 1), stride=(1, 1))
              (1): ReLU(inplace=True)
              (2): Conv2d(2, 32, kernel_size=(1, 1), stride=(1, 1))
              (3): Sigmoid()
            )
          )
        )
      )
      (25): RCAB(
        (body): Sequential(
          (0): Conv2d(32, 32, kernel_size=(3, 3), stride=(1, 1), padding=(1, 1))
          (1): ReLU(inplace=True)
          (2): Conv2d(32, 32, kernel_size=(3, 3), stride=(1, 1), padding=(1, 1))
          (3): CALayer(
            (avg_pool): AdaptiveAvgPool2d(output_size=1)
            (conv_du): Sequential(
              (0): Conv2d(32, 2, kernel_size=(1, 1), stride=(1, 1))
              (1): ReLU(inplace=True)
              (2): Conv2d(2, 32, kernel_size=(1, 1), stride=(1, 1))
              (3): Sigmoid()
            )
          )
        )
      )
      (26): RCAB(
        (body): Sequential(
          (0): Conv2d(32, 32, kernel_size=(3, 3), stride=(1, 1), padding=(1, 1))
          (1): ReLU(inplace=True)
          (2): Conv2d(32, 32, kernel_size=(3, 3), stride=(1, 1), padding=(1, 1))
          (3): CALayer(
            (avg_pool): AdaptiveAvgPool2d(output_size=1)
            (conv_du): Sequential(
              (0): Conv2d(32, 2, kernel_size=(1, 1), stride=(1, 1))
              (1): ReLU(inplace=True)
              (2): Conv2d(2, 32, kernel_size=(1, 1), stride=(1, 1))
              (3): Sigmoid()
            )
          )
        )
      )
      (27): RCAB(
        (body): Sequential(
          (0): Conv2d(32, 32, kernel_size=(3, 3), stride=(1, 1), padding=(1, 1))
          (1): ReLU(inplace=True)
          (2): Conv2d(32, 32, kernel_size=(3, 3), stride=(1, 1), padding=(1, 1))
          (3): CALayer(
            (avg_pool): AdaptiveAvgPool2d(output_size=1)
            (conv_du): Sequential(
              (0): Conv2d(32, 2, kernel_size=(1, 1), stride=(1, 1))
              (1): ReLU(inplace=True)
              (2): Conv2d(2, 32, kernel_size=(1, 1), stride=(1, 1))
              (3): Sigmoid()
            )
          )
        )
      )
      (28): RCAB(
        (body): Sequential(
          (0): Conv2d(32, 32, kernel_size=(3, 3), stride=(1, 1), padding=(1, 1))
          (1): ReLU(inplace=True)
          (2): Conv2d(32, 32, kernel_size=(3, 3), stride=(1, 1), padding=(1, 1))
          (3): CALayer(
            (avg_pool): AdaptiveAvgPool2d(output_size=1)
            (conv_du): Sequential(
              (0): Conv2d(32, 2, kernel_size=(1, 1), stride=(1, 1))
              (1): ReLU(inplace=True)
              (2): Conv2d(2, 32, kernel_size=(1, 1), stride=(1, 1))
              (3): Sigmoid()
            )
          )
        )
      )
      (29): RCAB(
        (body): Sequential(
          (0): Conv2d(32, 32, kernel_size=(3, 3), stride=(1, 1), padding=(1, 1))
          (1): ReLU(inplace=True)
          (2): Conv2d(32, 32, kernel_size=(3, 3), stride=(1, 1), padding=(1, 1))
          (3): CALayer(
            (avg_pool): AdaptiveAvgPool2d(output_size=1)
            (conv_du): Sequential(
              (0): Conv2d(32, 2, kernel_size=(1, 1), stride=(1, 1))
              (1): ReLU(inplace=True)
              (2): Conv2d(2, 32, kernel_size=(1, 1), stride=(1, 1))
              (3): Sigmoid()
            )
          )
        )
      )
      (30): Upsampler(
        (0): Conv2d(32, 128, kernel_size=(3, 3), stride=(1, 1), padding=(1, 1))
        (1): PixelShuffle(upscale_factor=2)
      )
      (31): Conv2d(32, 16, kernel_size=(1, 1), stride=(1, 1))
    )
  )
  (tail): ModuleList(
    (0): Conv2d(32, 3, kernel_size=(3, 3), stride=(1, 1), padding=(1, 1))
    (1): Conv2d(32, 3, kernel_size=(3, 3), stride=(1, 1), padding=(1, 1))
  )
  (add_mean): MeanShift(3, 3, kernel_size=(1, 1), stride=(1, 1))
)
[DownBlock(
  (dual_module): Sequential(
    (0): Sequential(
      (0): Conv2d(3, 16, kernel_size=(3, 3), stride=(2, 2), padding=(1, 1), bias=False)
      (1): LeakyReLU(negative_slope=0.2, inplace=True)
    )
    (1): Conv2d(16, 3, kernel_size=(3, 3), stride=(1, 1), padding=(1, 1), bias=False)
  )
)]
The number of parameters is 1.21M
[Epoch 1]	Learning rate: 1.00e-4
DRN(
  (dct): DCT()
  (SRCNN): NewCNN(
    (RCAB1): RCAB(
      (body): Sequential(
        (0): Conv2d(32, 32, kernel_size=(3, 3), stride=(1, 1), padding=(1, 1))
        (1): ReLU(inplace=True)
        (2): Conv2d(32, 32, kernel_size=(3, 3), stride=(1, 1), padding=(1, 1))
        (3): CALayer(
          (avg_pool): AdaptiveAvgPool2d(output_size=1)
          (conv_du): Sequential(
            (0): Conv2d(32, 2, kernel_size=(1, 1), stride=(1, 1))
            (1): ReLU(inplace=True)
            (2): Conv2d(2, 32, kernel_size=(1, 1), stride=(1, 1))
            (3): Sigmoid()
          )
        )
      )
    )
    (RCAB2): RCAB(
      (body): Sequential(
        (0): Conv2d(64, 64, kernel_size=(3, 3), stride=(1, 1), padding=(1, 1))
        (1): ReLU(inplace=True)
        (2): Conv2d(64, 64, kernel_size=(3, 3), stride=(1, 1), padding=(1, 1))
        (3): CALayer(
          (avg_pool): AdaptiveAvgPool2d(output_size=1)
          (conv_du): Sequential(
            (0): Conv2d(64, 4, kernel_size=(1, 1), stride=(1, 1))
            (1): ReLU(inplace=True)
            (2): Conv2d(4, 64, kernel_size=(1, 1), stride=(1, 1))
            (3): Sigmoid()
          )
        )
      )
    )
    (RCAB3): RCAB(
      (body): Sequential(
        (0): Conv2d(128, 128, kernel_size=(3, 3), stride=(1, 1), padding=(1, 1))
        (1): ReLU(inplace=True)
        (2): Conv2d(128, 128, kernel_size=(3, 3), stride=(1, 1), padding=(1, 1))
        (3): CALayer(
          (avg_pool): AdaptiveAvgPool2d(output_size=1)
          (conv_du): Sequential(
            (0): Conv2d(128, 8, kernel_size=(1, 1), stride=(1, 1))
            (1): ReLU(inplace=True)
            (2): Conv2d(8, 128, kernel_size=(1, 1), stride=(1, 1))
            (3): Sigmoid()
          )
        )
      )
    )
    (conv1): Conv2d(3, 32, kernel_size=(9, 9), stride=(1, 1), padding=(4, 4))
    (conv2): Conv2d(256, 32, kernel_size=(5, 5), stride=(1, 1), padding=(2, 2))
    (conv3): Conv2d(32, 3, kernel_size=(5, 5), stride=(1, 1), padding=(2, 2))
    (tail): Conv2d(3, 3, kernel_size=(3, 3), stride=(1, 1), padding=(1, 1))
  )
  (upsample): Upsample(scale_factor=2.0, mode=bicubic)
  (sub_mean): MeanShift(3, 3, kernel_size=(1, 1), stride=(1, 1))
  (head): Conv2d(3, 16, kernel_size=(3, 3), stride=(1, 1), padding=(1, 1))
  (down): ModuleList(
    (0): DownBlock(
      (dual_module): Sequential(
        (0): Sequential(
          (0): Conv2d(16, 16, kernel_size=(3, 3), stride=(2, 2), padding=(1, 1), bias=False)
          (1): LeakyReLU(negative_slope=0.2, inplace=True)
        )
        (1): Conv2d(16, 32, kernel_size=(3, 3), stride=(1, 1), padding=(1, 1), bias=False)
      )
    )
  )
  (up_blocks): ModuleList(
    (0): Sequential(
      (0): RCAB(
        (body): Sequential(
          (0): Conv2d(32, 32, kernel_size=(3, 3), stride=(1, 1), padding=(1, 1))
          (1): ReLU(inplace=True)
          (2): Conv2d(32, 32, kernel_size=(3, 3), stride=(1, 1), padding=(1, 1))
          (3): CALayer(
            (avg_pool): AdaptiveAvgPool2d(output_size=1)
            (conv_du): Sequential(
              (0): Conv2d(32, 2, kernel_size=(1, 1), stride=(1, 1))
              (1): ReLU(inplace=True)
              (2): Conv2d(2, 32, kernel_size=(1, 1), stride=(1, 1))
              (3): Sigmoid()
            )
          )
        )
      )
      (1): RCAB(
        (body): Sequential(
          (0): Conv2d(32, 32, kernel_size=(3, 3), stride=(1, 1), padding=(1, 1))
          (1): ReLU(inplace=True)
          (2): Conv2d(32, 32, kernel_size=(3, 3), stride=(1, 1), padding=(1, 1))
          (3): CALayer(
            (avg_pool): AdaptiveAvgPool2d(output_size=1)
            (conv_du): Sequential(
              (0): Conv2d(32, 2, kernel_size=(1, 1), stride=(1, 1))
              (1): ReLU(inplace=True)
              (2): Conv2d(2, 32, kernel_size=(1, 1), stride=(1, 1))
              (3): Sigmoid()
            )
          )
        )
      )
      (2): RCAB(
        (body): Sequential(
          (0): Conv2d(32, 32, kernel_size=(3, 3), stride=(1, 1), padding=(1, 1))
          (1): ReLU(inplace=True)
          (2): Conv2d(32, 32, kernel_size=(3, 3), stride=(1, 1), padding=(1, 1))
          (3): CALayer(
            (avg_pool): AdaptiveAvgPool2d(output_size=1)
            (conv_du): Sequential(
              (0): Conv2d(32, 2, kernel_size=(1, 1), stride=(1, 1))
              (1): ReLU(inplace=True)
              (2): Conv2d(2, 32, kernel_size=(1, 1), stride=(1, 1))
              (3): Sigmoid()
            )
          )
        )
      )
      (3): RCAB(
        (body): Sequential(
          (0): Conv2d(32, 32, kernel_size=(3, 3), stride=(1, 1), padding=(1, 1))
          (1): ReLU(inplace=True)
          (2): Conv2d(32, 32, kernel_size=(3, 3), stride=(1, 1), padding=(1, 1))
          (3): CALayer(
            (avg_pool): AdaptiveAvgPool2d(output_size=1)
            (conv_du): Sequential(
              (0): Conv2d(32, 2, kernel_size=(1, 1), stride=(1, 1))
              (1): ReLU(inplace=True)
              (2): Conv2d(2, 32, kernel_size=(1, 1), stride=(1, 1))
              (3): Sigmoid()
            )
          )
        )
      )
      (4): RCAB(
        (body): Sequential(
          (0): Conv2d(32, 32, kernel_size=(3, 3), stride=(1, 1), padding=(1, 1))
          (1): ReLU(inplace=True)
          (2): Conv2d(32, 32, kernel_size=(3, 3), stride=(1, 1), padding=(1, 1))
          (3): CALayer(
            (avg_pool): AdaptiveAvgPool2d(output_size=1)
            (conv_du): Sequential(
              (0): Conv2d(32, 2, kernel_size=(1, 1), stride=(1, 1))
              (1): ReLU(inplace=True)
              (2): Conv2d(2, 32, kernel_size=(1, 1), stride=(1, 1))
              (3): Sigmoid()
            )
          )
        )
      )
      (5): RCAB(
        (body): Sequential(
          (0): Conv2d(32, 32, kernel_size=(3, 3), stride=(1, 1), padding=(1, 1))
          (1): ReLU(inplace=True)
          (2): Conv2d(32, 32, kernel_size=(3, 3), stride=(1, 1), padding=(1, 1))
          (3): CALayer(
            (avg_pool): AdaptiveAvgPool2d(output_size=1)
            (conv_du): Sequential(
              (0): Conv2d(32, 2, kernel_size=(1, 1), stride=(1, 1))
              (1): ReLU(inplace=True)
              (2): Conv2d(2, 32, kernel_size=(1, 1), stride=(1, 1))
              (3): Sigmoid()
            )
          )
        )
      )
      (6): RCAB(
        (body): Sequential(
          (0): Conv2d(32, 32, kernel_size=(3, 3), stride=(1, 1), padding=(1, 1))
          (1): ReLU(inplace=True)
          (2): Conv2d(32, 32, kernel_size=(3, 3), stride=(1, 1), padding=(1, 1))
          (3): CALayer(
            (avg_pool): AdaptiveAvgPool2d(output_size=1)
            (conv_du): Sequential(
              (0): Conv2d(32, 2, kernel_size=(1, 1), stride=(1, 1))
              (1): ReLU(inplace=True)
              (2): Conv2d(2, 32, kernel_size=(1, 1), stride=(1, 1))
              (3): Sigmoid()
            )
          )
        )
      )
      (7): RCAB(
        (body): Sequential(
          (0): Conv2d(32, 32, kernel_size=(3, 3), stride=(1, 1), padding=(1, 1))
          (1): ReLU(inplace=True)
          (2): Conv2d(32, 32, kernel_size=(3, 3), stride=(1, 1), padding=(1, 1))
          (3): CALayer(
            (avg_pool): AdaptiveAvgPool2d(output_size=1)
            (conv_du): Sequential(
              (0): Conv2d(32, 2, kernel_size=(1, 1), stride=(1, 1))
              (1): ReLU(inplace=True)
              (2): Conv2d(2, 32, kernel_size=(1, 1), stride=(1, 1))
              (3): Sigmoid()
            )
          )
        )
      )
      (8): RCAB(
        (body): Sequential(
          (0): Conv2d(32, 32, kernel_size=(3, 3), stride=(1, 1), padding=(1, 1))
          (1): ReLU(inplace=True)
          (2): Conv2d(32, 32, kernel_size=(3, 3), stride=(1, 1), padding=(1, 1))
          (3): CALayer(
            (avg_pool): AdaptiveAvgPool2d(output_size=1)
            (conv_du): Sequential(
              (0): Conv2d(32, 2, kernel_size=(1, 1), stride=(1, 1))
              (1): ReLU(inplace=True)
              (2): Conv2d(2, 32, kernel_size=(1, 1), stride=(1, 1))
              (3): Sigmoid()
            )
          )
        )
      )
      (9): RCAB(
        (body): Sequential(
          (0): Conv2d(32, 32, kernel_size=(3, 3), stride=(1, 1), padding=(1, 1))
          (1): ReLU(inplace=True)
          (2): Conv2d(32, 32, kernel_size=(3, 3), stride=(1, 1), padding=(1, 1))
          (3): CALayer(
            (avg_pool): AdaptiveAvgPool2d(output_size=1)
            (conv_du): Sequential(
              (0): Conv2d(32, 2, kernel_size=(1, 1), stride=(1, 1))
              (1): ReLU(inplace=True)
              (2): Conv2d(2, 32, kernel_size=(1, 1), stride=(1, 1))
              (3): Sigmoid()
            )
          )
        )
      )
      (10): RCAB(
        (body): Sequential(
          (0): Conv2d(32, 32, kernel_size=(3, 3), stride=(1, 1), padding=(1, 1))
          (1): ReLU(inplace=True)
          (2): Conv2d(32, 32, kernel_size=(3, 3), stride=(1, 1), padding=(1, 1))
          (3): CALayer(
            (avg_pool): AdaptiveAvgPool2d(output_size=1)
            (conv_du): Sequential(
              (0): Conv2d(32, 2, kernel_size=(1, 1), stride=(1, 1))
              (1): ReLU(inplace=True)
              (2): Conv2d(2, 32, kernel_size=(1, 1), stride=(1, 1))
              (3): Sigmoid()
            )
          )
        )
      )
      (11): RCAB(
        (body): Sequential(
          (0): Conv2d(32, 32, kernel_size=(3, 3), stride=(1, 1), padding=(1, 1))
          (1): ReLU(inplace=True)
          (2): Conv2d(32, 32, kernel_size=(3, 3), stride=(1, 1), padding=(1, 1))
          (3): CALayer(
            (avg_pool): AdaptiveAvgPool2d(output_size=1)
            (conv_du): Sequential(
              (0): Conv2d(32, 2, kernel_size=(1, 1), stride=(1, 1))
              (1): ReLU(inplace=True)
              (2): Conv2d(2, 32, kernel_size=(1, 1), stride=(1, 1))
              (3): Sigmoid()
            )
          )
        )
      )
      (12): RCAB(
        (body): Sequential(
          (0): Conv2d(32, 32, kernel_size=(3, 3), stride=(1, 1), padding=(1, 1))
          (1): ReLU(inplace=True)
          (2): Conv2d(32, 32, kernel_size=(3, 3), stride=(1, 1), padding=(1, 1))
          (3): CALayer(
            (avg_pool): AdaptiveAvgPool2d(output_size=1)
            (conv_du): Sequential(
              (0): Conv2d(32, 2, kernel_size=(1, 1), stride=(1, 1))
              (1): ReLU(inplace=True)
              (2): Conv2d(2, 32, kernel_size=(1, 1), stride=(1, 1))
              (3): Sigmoid()
            )
          )
        )
      )
      (13): RCAB(
        (body): Sequential(
          (0): Conv2d(32, 32, kernel_size=(3, 3), stride=(1, 1), padding=(1, 1))
          (1): ReLU(inplace=True)
          (2): Conv2d(32, 32, kernel_size=(3, 3), stride=(1, 1), padding=(1, 1))
          (3): CALayer(
            (avg_pool): AdaptiveAvgPool2d(output_size=1)
            (conv_du): Sequential(
              (0): Conv2d(32, 2, kernel_size=(1, 1), stride=(1, 1))
              (1): ReLU(inplace=True)
              (2): Conv2d(2, 32, kernel_size=(1, 1), stride=(1, 1))
              (3): Sigmoid()
            )
          )
        )
      )
      (14): RCAB(
        (body): Sequential(
          (0): Conv2d(32, 32, kernel_size=(3, 3), stride=(1, 1), padding=(1, 1))
          (1): ReLU(inplace=True)
          (2): Conv2d(32, 32, kernel_size=(3, 3), stride=(1, 1), padding=(1, 1))
          (3): CALayer(
            (avg_pool): AdaptiveAvgPool2d(output_size=1)
            (conv_du): Sequential(
              (0): Conv2d(32, 2, kernel_size=(1, 1), stride=(1, 1))
              (1): ReLU(inplace=True)
              (2): Conv2d(2, 32, kernel_size=(1, 1), stride=(1, 1))
              (3): Sigmoid()
            )
          )
        )
      )
      (15): RCAB(
        (body): Sequential(
          (0): Conv2d(32, 32, kernel_size=(3, 3), stride=(1, 1), padding=(1, 1))
          (1): ReLU(inplace=True)
          (2): Conv2d(32, 32, kernel_size=(3, 3), stride=(1, 1), padding=(1, 1))
          (3): CALayer(
            (avg_pool): AdaptiveAvgPool2d(output_size=1)
            (conv_du): Sequential(
              (0): Conv2d(32, 2, kernel_size=(1, 1), stride=(1, 1))
              (1): ReLU(inplace=True)
              (2): Conv2d(2, 32, kernel_size=(1, 1), stride=(1, 1))
              (3): Sigmoid()
            )
          )
        )
      )
      (16): RCAB(
        (body): Sequential(
          (0): Conv2d(32, 32, kernel_size=(3, 3), stride=(1, 1), padding=(1, 1))
          (1): ReLU(inplace=True)
          (2): Conv2d(32, 32, kernel_size=(3, 3), stride=(1, 1), padding=(1, 1))
          (3): CALayer(
            (avg_pool): AdaptiveAvgPool2d(output_size=1)
            (conv_du): Sequential(
              (0): Conv2d(32, 2, kernel_size=(1, 1), stride=(1, 1))
              (1): ReLU(inplace=True)
              (2): Conv2d(2, 32, kernel_size=(1, 1), stride=(1, 1))
              (3): Sigmoid()
            )
          )
        )
      )
      (17): RCAB(
        (body): Sequential(
          (0): Conv2d(32, 32, kernel_size=(3, 3), stride=(1, 1), padding=(1, 1))
          (1): ReLU(inplace=True)
          (2): Conv2d(32, 32, kernel_size=(3, 3), stride=(1, 1), padding=(1, 1))
          (3): CALayer(
            (avg_pool): AdaptiveAvgPool2d(output_size=1)
            (conv_du): Sequential(
              (0): Conv2d(32, 2, kernel_size=(1, 1), stride=(1, 1))
              (1): ReLU(inplace=True)
              (2): Conv2d(2, 32, kernel_size=(1, 1), stride=(1, 1))
              (3): Sigmoid()
            )
          )
        )
      )
      (18): RCAB(
        (body): Sequential(
          (0): Conv2d(32, 32, kernel_size=(3, 3), stride=(1, 1), padding=(1, 1))
          (1): ReLU(inplace=True)
          (2): Conv2d(32, 32, kernel_size=(3, 3), stride=(1, 1), padding=(1, 1))
          (3): CALayer(
            (avg_pool): AdaptiveAvgPool2d(output_size=1)
            (conv_du): Sequential(
              (0): Conv2d(32, 2, kernel_size=(1, 1), stride=(1, 1))
              (1): ReLU(inplace=True)
              (2): Conv2d(2, 32, kernel_size=(1, 1), stride=(1, 1))
              (3): Sigmoid()
            )
          )
        )
      )
      (19): RCAB(
        (body): Sequential(
          (0): Conv2d(32, 32, kernel_size=(3, 3), stride=(1, 1), padding=(1, 1))
          (1): ReLU(inplace=True)
          (2): Conv2d(32, 32, kernel_size=(3, 3), stride=(1, 1), padding=(1, 1))
          (3): CALayer(
            (avg_pool): AdaptiveAvgPool2d(output_size=1)
            (conv_du): Sequential(
              (0): Conv2d(32, 2, kernel_size=(1, 1), stride=(1, 1))
              (1): ReLU(inplace=True)
              (2): Conv2d(2, 32, kernel_size=(1, 1), stride=(1, 1))
              (3): Sigmoid()
            )
          )
        )
      )
      (20): RCAB(
        (body): Sequential(
          (0): Conv2d(32, 32, kernel_size=(3, 3), stride=(1, 1), padding=(1, 1))
          (1): ReLU(inplace=True)
          (2): Conv2d(32, 32, kernel_size=(3, 3), stride=(1, 1), padding=(1, 1))
          (3): CALayer(
            (avg_pool): AdaptiveAvgPool2d(output_size=1)
            (conv_du): Sequential(
              (0): Conv2d(32, 2, kernel_size=(1, 1), stride=(1, 1))
              (1): ReLU(inplace=True)
              (2): Conv2d(2, 32, kernel_size=(1, 1), stride=(1, 1))
              (3): Sigmoid()
            )
          )
        )
      )
      (21): RCAB(
        (body): Sequential(
          (0): Conv2d(32, 32, kernel_size=(3, 3), stride=(1, 1), padding=(1, 1))
          (1): ReLU(inplace=True)
          (2): Conv2d(32, 32, kernel_size=(3, 3), stride=(1, 1), padding=(1, 1))
          (3): CALayer(
            (avg_pool): AdaptiveAvgPool2d(output_size=1)
            (conv_du): Sequential(
              (0): Conv2d(32, 2, kernel_size=(1, 1), stride=(1, 1))
              (1): ReLU(inplace=True)
              (2): Conv2d(2, 32, kernel_size=(1, 1), stride=(1, 1))
              (3): Sigmoid()
            )
          )
        )
      )
      (22): RCAB(
        (body): Sequential(
          (0): Conv2d(32, 32, kernel_size=(3, 3), stride=(1, 1), padding=(1, 1))
          (1): ReLU(inplace=True)
          (2): Conv2d(32, 32, kernel_size=(3, 3), stride=(1, 1), padding=(1, 1))
          (3): CALayer(
            (avg_pool): AdaptiveAvgPool2d(output_size=1)
            (conv_du): Sequential(
              (0): Conv2d(32, 2, kernel_size=(1, 1), stride=(1, 1))
              (1): ReLU(inplace=True)
              (2): Conv2d(2, 32, kernel_size=(1, 1), stride=(1, 1))
              (3): Sigmoid()
            )
          )
        )
      )
      (23): RCAB(
        (body): Sequential(
          (0): Conv2d(32, 32, kernel_size=(3, 3), stride=(1, 1), padding=(1, 1))
          (1): ReLU(inplace=True)
          (2): Conv2d(32, 32, kernel_size=(3, 3), stride=(1, 1), padding=(1, 1))
          (3): CALayer(
            (avg_pool): AdaptiveAvgPool2d(output_size=1)
            (conv_du): Sequential(
              (0): Conv2d(32, 2, kernel_size=(1, 1), stride=(1, 1))
              (1): ReLU(inplace=True)
              (2): Conv2d(2, 32, kernel_size=(1, 1), stride=(1, 1))
              (3): Sigmoid()
            )
          )
        )
      )
      (24): RCAB(
        (body): Sequential(
          (0): Conv2d(32, 32, kernel_size=(3, 3), stride=(1, 1), padding=(1, 1))
          (1): ReLU(inplace=True)
          (2): Conv2d(32, 32, kernel_size=(3, 3), stride=(1, 1), padding=(1, 1))
          (3): CALayer(
            (avg_pool): AdaptiveAvgPool2d(output_size=1)
            (conv_du): Sequential(
              (0): Conv2d(32, 2, kernel_size=(1, 1), stride=(1, 1))
              (1): ReLU(inplace=True)
              (2): Conv2d(2, 32, kernel_size=(1, 1), stride=(1, 1))
              (3): Sigmoid()
            )
          )
        )
      )
      (25): RCAB(
        (body): Sequential(
          (0): Conv2d(32, 32, kernel_size=(3, 3), stride=(1, 1), padding=(1, 1))
          (1): ReLU(inplace=True)
          (2): Conv2d(32, 32, kernel_size=(3, 3), stride=(1, 1), padding=(1, 1))
          (3): CALayer(
            (avg_pool): AdaptiveAvgPool2d(output_size=1)
            (conv_du): Sequential(
              (0): Conv2d(32, 2, kernel_size=(1, 1), stride=(1, 1))
              (1): ReLU(inplace=True)
              (2): Conv2d(2, 32, kernel_size=(1, 1), stride=(1, 1))
              (3): Sigmoid()
            )
          )
        )
      )
      (26): RCAB(
        (body): Sequential(
          (0): Conv2d(32, 32, kernel_size=(3, 3), stride=(1, 1), padding=(1, 1))
          (1): ReLU(inplace=True)
          (2): Conv2d(32, 32, kernel_size=(3, 3), stride=(1, 1), padding=(1, 1))
          (3): CALayer(
            (avg_pool): AdaptiveAvgPool2d(output_size=1)
            (conv_du): Sequential(
              (0): Conv2d(32, 2, kernel_size=(1, 1), stride=(1, 1))
              (1): ReLU(inplace=True)
              (2): Conv2d(2, 32, kernel_size=(1, 1), stride=(1, 1))
              (3): Sigmoid()
            )
          )
        )
      )
      (27): RCAB(
        (body): Sequential(
          (0): Conv2d(32, 32, kernel_size=(3, 3), stride=(1, 1), padding=(1, 1))
          (1): ReLU(inplace=True)
          (2): Conv2d(32, 32, kernel_size=(3, 3), stride=(1, 1), padding=(1, 1))
          (3): CALayer(
            (avg_pool): AdaptiveAvgPool2d(output_size=1)
            (conv_du): Sequential(
              (0): Conv2d(32, 2, kernel_size=(1, 1), stride=(1, 1))
              (1): ReLU(inplace=True)
              (2): Conv2d(2, 32, kernel_size=(1, 1), stride=(1, 1))
              (3): Sigmoid()
            )
          )
        )
      )
      (28): RCAB(
        (body): Sequential(
          (0): Conv2d(32, 32, kernel_size=(3, 3), stride=(1, 1), padding=(1, 1))
          (1): ReLU(inplace=True)
          (2): Conv2d(32, 32, kernel_size=(3, 3), stride=(1, 1), padding=(1, 1))
          (3): CALayer(
            (avg_pool): AdaptiveAvgPool2d(output_size=1)
            (conv_du): Sequential(
              (0): Conv2d(32, 2, kernel_size=(1, 1), stride=(1, 1))
              (1): ReLU(inplace=True)
              (2): Conv2d(2, 32, kernel_size=(1, 1), stride=(1, 1))
              (3): Sigmoid()
            )
          )
        )
      )
      (29): RCAB(
        (body): Sequential(
          (0): Conv2d(32, 32, kernel_size=(3, 3), stride=(1, 1), padding=(1, 1))
          (1): ReLU(inplace=True)
          (2): Conv2d(32, 32, kernel_size=(3, 3), stride=(1, 1), padding=(1, 1))
          (3): CALayer(
            (avg_pool): AdaptiveAvgPool2d(output_size=1)
            (conv_du): Sequential(
              (0): Conv2d(32, 2, kernel_size=(1, 1), stride=(1, 1))
              (1): ReLU(inplace=True)
              (2): Conv2d(2, 32, kernel_size=(1, 1), stride=(1, 1))
              (3): Sigmoid()
            )
          )
        )
      )
      (30): Upsampler(
        (0): Conv2d(32, 128, kernel_size=(3, 3), stride=(1, 1), padding=(1, 1))
        (1): PixelShuffle(upscale_factor=2)
      )
      (31): Conv2d(32, 16, kernel_size=(1, 1), stride=(1, 1))
    )
  )
  (tail): ModuleList(
    (0): Conv2d(32, 3, kernel_size=(3, 3), stride=(1, 1), padding=(1, 1))
    (1): Conv2d(32, 3, kernel_size=(3, 3), stride=(1, 1), padding=(1, 1))
  )
  (add_mean): MeanShift(3, 3, kernel_size=(1, 1), stride=(1, 1))
)
[DownBlock(
  (dual_module): Sequential(
    (0): Sequential(
      (0): Conv2d(3, 16, kernel_size=(3, 3), stride=(2, 2), padding=(1, 1), bias=False)
      (1): LeakyReLU(negative_slope=0.2, inplace=True)
    )
    (1): Conv2d(16, 3, kernel_size=(3, 3), stride=(1, 1), padding=(1, 1), bias=False)
  )
)]
The number of parameters is 1.21M
[Epoch 1]	Learning rate: 1.00e-4
DRN(
  (dct): DCT()
  (SRCNN): NewCNN(
    (RCAB1): RCAB(
      (body): Sequential(
        (0): Conv2d(32, 32, kernel_size=(3, 3), stride=(1, 1), padding=(1, 1))
        (1): ReLU(inplace=True)
        (2): Conv2d(32, 32, kernel_size=(3, 3), stride=(1, 1), padding=(1, 1))
        (3): CALayer(
          (avg_pool): AdaptiveAvgPool2d(output_size=1)
          (conv_du): Sequential(
            (0): Conv2d(32, 2, kernel_size=(1, 1), stride=(1, 1))
            (1): ReLU(inplace=True)
            (2): Conv2d(2, 32, kernel_size=(1, 1), stride=(1, 1))
            (3): Sigmoid()
          )
        )
      )
    )
    (RCAB2): RCAB(
      (body): Sequential(
        (0): Conv2d(64, 64, kernel_size=(3, 3), stride=(1, 1), padding=(1, 1))
        (1): ReLU(inplace=True)
        (2): Conv2d(64, 64, kernel_size=(3, 3), stride=(1, 1), padding=(1, 1))
        (3): CALayer(
          (avg_pool): AdaptiveAvgPool2d(output_size=1)
          (conv_du): Sequential(
            (0): Conv2d(64, 4, kernel_size=(1, 1), stride=(1, 1))
            (1): ReLU(inplace=True)
            (2): Conv2d(4, 64, kernel_size=(1, 1), stride=(1, 1))
            (3): Sigmoid()
          )
        )
      )
    )
    (RCAB3): RCAB(
      (body): Sequential(
        (0): Conv2d(128, 128, kernel_size=(3, 3), stride=(1, 1), padding=(1, 1))
        (1): ReLU(inplace=True)
        (2): Conv2d(128, 128, kernel_size=(3, 3), stride=(1, 1), padding=(1, 1))
        (3): CALayer(
          (avg_pool): AdaptiveAvgPool2d(output_size=1)
          (conv_du): Sequential(
            (0): Conv2d(128, 8, kernel_size=(1, 1), stride=(1, 1))
            (1): ReLU(inplace=True)
            (2): Conv2d(8, 128, kernel_size=(1, 1), stride=(1, 1))
            (3): Sigmoid()
          )
        )
      )
    )
    (conv1): Conv2d(3, 32, kernel_size=(9, 9), stride=(1, 1), padding=(4, 4))
    (conv2): Conv2d(256, 32, kernel_size=(5, 5), stride=(1, 1), padding=(2, 2))
    (conv3): Conv2d(32, 3, kernel_size=(5, 5), stride=(1, 1), padding=(2, 2))
    (tail): Conv2d(3, 3, kernel_size=(3, 3), stride=(1, 1), padding=(1, 1))
  )
  (upsample): Upsample(scale_factor=2.0, mode=bicubic)
  (sub_mean): MeanShift(3, 3, kernel_size=(1, 1), stride=(1, 1))
  (head): Conv2d(3, 16, kernel_size=(3, 3), stride=(1, 1), padding=(1, 1))
  (down): ModuleList(
    (0): DownBlock(
      (dual_module): Sequential(
        (0): Sequential(
          (0): Conv2d(16, 16, kernel_size=(3, 3), stride=(2, 2), padding=(1, 1), bias=False)
          (1): LeakyReLU(negative_slope=0.2, inplace=True)
        )
        (1): Conv2d(16, 32, kernel_size=(3, 3), stride=(1, 1), padding=(1, 1), bias=False)
      )
    )
  )
  (up_blocks): ModuleList(
    (0): Sequential(
      (0): RCAB(
        (body): Sequential(
          (0): Conv2d(32, 32, kernel_size=(3, 3), stride=(1, 1), padding=(1, 1))
          (1): ReLU(inplace=True)
          (2): Conv2d(32, 32, kernel_size=(3, 3), stride=(1, 1), padding=(1, 1))
          (3): CALayer(
            (avg_pool): AdaptiveAvgPool2d(output_size=1)
            (conv_du): Sequential(
              (0): Conv2d(32, 2, kernel_size=(1, 1), stride=(1, 1))
              (1): ReLU(inplace=True)
              (2): Conv2d(2, 32, kernel_size=(1, 1), stride=(1, 1))
              (3): Sigmoid()
            )
          )
        )
      )
      (1): RCAB(
        (body): Sequential(
          (0): Conv2d(32, 32, kernel_size=(3, 3), stride=(1, 1), padding=(1, 1))
          (1): ReLU(inplace=True)
          (2): Conv2d(32, 32, kernel_size=(3, 3), stride=(1, 1), padding=(1, 1))
          (3): CALayer(
            (avg_pool): AdaptiveAvgPool2d(output_size=1)
            (conv_du): Sequential(
              (0): Conv2d(32, 2, kernel_size=(1, 1), stride=(1, 1))
              (1): ReLU(inplace=True)
              (2): Conv2d(2, 32, kernel_size=(1, 1), stride=(1, 1))
              (3): Sigmoid()
            )
          )
        )
      )
      (2): RCAB(
        (body): Sequential(
          (0): Conv2d(32, 32, kernel_size=(3, 3), stride=(1, 1), padding=(1, 1))
          (1): ReLU(inplace=True)
          (2): Conv2d(32, 32, kernel_size=(3, 3), stride=(1, 1), padding=(1, 1))
          (3): CALayer(
            (avg_pool): AdaptiveAvgPool2d(output_size=1)
            (conv_du): Sequential(
              (0): Conv2d(32, 2, kernel_size=(1, 1), stride=(1, 1))
              (1): ReLU(inplace=True)
              (2): Conv2d(2, 32, kernel_size=(1, 1), stride=(1, 1))
              (3): Sigmoid()
            )
          )
        )
      )
      (3): RCAB(
        (body): Sequential(
          (0): Conv2d(32, 32, kernel_size=(3, 3), stride=(1, 1), padding=(1, 1))
          (1): ReLU(inplace=True)
          (2): Conv2d(32, 32, kernel_size=(3, 3), stride=(1, 1), padding=(1, 1))
          (3): CALayer(
            (avg_pool): AdaptiveAvgPool2d(output_size=1)
            (conv_du): Sequential(
              (0): Conv2d(32, 2, kernel_size=(1, 1), stride=(1, 1))
              (1): ReLU(inplace=True)
              (2): Conv2d(2, 32, kernel_size=(1, 1), stride=(1, 1))
              (3): Sigmoid()
            )
          )
        )
      )
      (4): RCAB(
        (body): Sequential(
          (0): Conv2d(32, 32, kernel_size=(3, 3), stride=(1, 1), padding=(1, 1))
          (1): ReLU(inplace=True)
          (2): Conv2d(32, 32, kernel_size=(3, 3), stride=(1, 1), padding=(1, 1))
          (3): CALayer(
            (avg_pool): AdaptiveAvgPool2d(output_size=1)
            (conv_du): Sequential(
              (0): Conv2d(32, 2, kernel_size=(1, 1), stride=(1, 1))
              (1): ReLU(inplace=True)
              (2): Conv2d(2, 32, kernel_size=(1, 1), stride=(1, 1))
              (3): Sigmoid()
            )
          )
        )
      )
      (5): RCAB(
        (body): Sequential(
          (0): Conv2d(32, 32, kernel_size=(3, 3), stride=(1, 1), padding=(1, 1))
          (1): ReLU(inplace=True)
          (2): Conv2d(32, 32, kernel_size=(3, 3), stride=(1, 1), padding=(1, 1))
          (3): CALayer(
            (avg_pool): AdaptiveAvgPool2d(output_size=1)
            (conv_du): Sequential(
              (0): Conv2d(32, 2, kernel_size=(1, 1), stride=(1, 1))
              (1): ReLU(inplace=True)
              (2): Conv2d(2, 32, kernel_size=(1, 1), stride=(1, 1))
              (3): Sigmoid()
            )
          )
        )
      )
      (6): RCAB(
        (body): Sequential(
          (0): Conv2d(32, 32, kernel_size=(3, 3), stride=(1, 1), padding=(1, 1))
          (1): ReLU(inplace=True)
          (2): Conv2d(32, 32, kernel_size=(3, 3), stride=(1, 1), padding=(1, 1))
          (3): CALayer(
            (avg_pool): AdaptiveAvgPool2d(output_size=1)
            (conv_du): Sequential(
              (0): Conv2d(32, 2, kernel_size=(1, 1), stride=(1, 1))
              (1): ReLU(inplace=True)
              (2): Conv2d(2, 32, kernel_size=(1, 1), stride=(1, 1))
              (3): Sigmoid()
            )
          )
        )
      )
      (7): RCAB(
        (body): Sequential(
          (0): Conv2d(32, 32, kernel_size=(3, 3), stride=(1, 1), padding=(1, 1))
          (1): ReLU(inplace=True)
          (2): Conv2d(32, 32, kernel_size=(3, 3), stride=(1, 1), padding=(1, 1))
          (3): CALayer(
            (avg_pool): AdaptiveAvgPool2d(output_size=1)
            (conv_du): Sequential(
              (0): Conv2d(32, 2, kernel_size=(1, 1), stride=(1, 1))
              (1): ReLU(inplace=True)
              (2): Conv2d(2, 32, kernel_size=(1, 1), stride=(1, 1))
              (3): Sigmoid()
            )
          )
        )
      )
      (8): RCAB(
        (body): Sequential(
          (0): Conv2d(32, 32, kernel_size=(3, 3), stride=(1, 1), padding=(1, 1))
          (1): ReLU(inplace=True)
          (2): Conv2d(32, 32, kernel_size=(3, 3), stride=(1, 1), padding=(1, 1))
          (3): CALayer(
            (avg_pool): AdaptiveAvgPool2d(output_size=1)
            (conv_du): Sequential(
              (0): Conv2d(32, 2, kernel_size=(1, 1), stride=(1, 1))
              (1): ReLU(inplace=True)
              (2): Conv2d(2, 32, kernel_size=(1, 1), stride=(1, 1))
              (3): Sigmoid()
            )
          )
        )
      )
      (9): RCAB(
        (body): Sequential(
          (0): Conv2d(32, 32, kernel_size=(3, 3), stride=(1, 1), padding=(1, 1))
          (1): ReLU(inplace=True)
          (2): Conv2d(32, 32, kernel_size=(3, 3), stride=(1, 1), padding=(1, 1))
          (3): CALayer(
            (avg_pool): AdaptiveAvgPool2d(output_size=1)
            (conv_du): Sequential(
              (0): Conv2d(32, 2, kernel_size=(1, 1), stride=(1, 1))
              (1): ReLU(inplace=True)
              (2): Conv2d(2, 32, kernel_size=(1, 1), stride=(1, 1))
              (3): Sigmoid()
            )
          )
        )
      )
      (10): RCAB(
        (body): Sequential(
          (0): Conv2d(32, 32, kernel_size=(3, 3), stride=(1, 1), padding=(1, 1))
          (1): ReLU(inplace=True)
          (2): Conv2d(32, 32, kernel_size=(3, 3), stride=(1, 1), padding=(1, 1))
          (3): CALayer(
            (avg_pool): AdaptiveAvgPool2d(output_size=1)
            (conv_du): Sequential(
              (0): Conv2d(32, 2, kernel_size=(1, 1), stride=(1, 1))
              (1): ReLU(inplace=True)
              (2): Conv2d(2, 32, kernel_size=(1, 1), stride=(1, 1))
              (3): Sigmoid()
            )
          )
        )
      )
      (11): RCAB(
        (body): Sequential(
          (0): Conv2d(32, 32, kernel_size=(3, 3), stride=(1, 1), padding=(1, 1))
          (1): ReLU(inplace=True)
          (2): Conv2d(32, 32, kernel_size=(3, 3), stride=(1, 1), padding=(1, 1))
          (3): CALayer(
            (avg_pool): AdaptiveAvgPool2d(output_size=1)
            (conv_du): Sequential(
              (0): Conv2d(32, 2, kernel_size=(1, 1), stride=(1, 1))
              (1): ReLU(inplace=True)
              (2): Conv2d(2, 32, kernel_size=(1, 1), stride=(1, 1))
              (3): Sigmoid()
            )
          )
        )
      )
      (12): RCAB(
        (body): Sequential(
          (0): Conv2d(32, 32, kernel_size=(3, 3), stride=(1, 1), padding=(1, 1))
          (1): ReLU(inplace=True)
          (2): Conv2d(32, 32, kernel_size=(3, 3), stride=(1, 1), padding=(1, 1))
          (3): CALayer(
            (avg_pool): AdaptiveAvgPool2d(output_size=1)
            (conv_du): Sequential(
              (0): Conv2d(32, 2, kernel_size=(1, 1), stride=(1, 1))
              (1): ReLU(inplace=True)
              (2): Conv2d(2, 32, kernel_size=(1, 1), stride=(1, 1))
              (3): Sigmoid()
            )
          )
        )
      )
      (13): RCAB(
        (body): Sequential(
          (0): Conv2d(32, 32, kernel_size=(3, 3), stride=(1, 1), padding=(1, 1))
          (1): ReLU(inplace=True)
          (2): Conv2d(32, 32, kernel_size=(3, 3), stride=(1, 1), padding=(1, 1))
          (3): CALayer(
            (avg_pool): AdaptiveAvgPool2d(output_size=1)
            (conv_du): Sequential(
              (0): Conv2d(32, 2, kernel_size=(1, 1), stride=(1, 1))
              (1): ReLU(inplace=True)
              (2): Conv2d(2, 32, kernel_size=(1, 1), stride=(1, 1))
              (3): Sigmoid()
            )
          )
        )
      )
      (14): RCAB(
        (body): Sequential(
          (0): Conv2d(32, 32, kernel_size=(3, 3), stride=(1, 1), padding=(1, 1))
          (1): ReLU(inplace=True)
          (2): Conv2d(32, 32, kernel_size=(3, 3), stride=(1, 1), padding=(1, 1))
          (3): CALayer(
            (avg_pool): AdaptiveAvgPool2d(output_size=1)
            (conv_du): Sequential(
              (0): Conv2d(32, 2, kernel_size=(1, 1), stride=(1, 1))
              (1): ReLU(inplace=True)
              (2): Conv2d(2, 32, kernel_size=(1, 1), stride=(1, 1))
              (3): Sigmoid()
            )
          )
        )
      )
      (15): RCAB(
        (body): Sequential(
          (0): Conv2d(32, 32, kernel_size=(3, 3), stride=(1, 1), padding=(1, 1))
          (1): ReLU(inplace=True)
          (2): Conv2d(32, 32, kernel_size=(3, 3), stride=(1, 1), padding=(1, 1))
          (3): CALayer(
            (avg_pool): AdaptiveAvgPool2d(output_size=1)
            (conv_du): Sequential(
              (0): Conv2d(32, 2, kernel_size=(1, 1), stride=(1, 1))
              (1): ReLU(inplace=True)
              (2): Conv2d(2, 32, kernel_size=(1, 1), stride=(1, 1))
              (3): Sigmoid()
            )
          )
        )
      )
      (16): RCAB(
        (body): Sequential(
          (0): Conv2d(32, 32, kernel_size=(3, 3), stride=(1, 1), padding=(1, 1))
          (1): ReLU(inplace=True)
          (2): Conv2d(32, 32, kernel_size=(3, 3), stride=(1, 1), padding=(1, 1))
          (3): CALayer(
            (avg_pool): AdaptiveAvgPool2d(output_size=1)
            (conv_du): Sequential(
              (0): Conv2d(32, 2, kernel_size=(1, 1), stride=(1, 1))
              (1): ReLU(inplace=True)
              (2): Conv2d(2, 32, kernel_size=(1, 1), stride=(1, 1))
              (3): Sigmoid()
            )
          )
        )
      )
      (17): RCAB(
        (body): Sequential(
          (0): Conv2d(32, 32, kernel_size=(3, 3), stride=(1, 1), padding=(1, 1))
          (1): ReLU(inplace=True)
          (2): Conv2d(32, 32, kernel_size=(3, 3), stride=(1, 1), padding=(1, 1))
          (3): CALayer(
            (avg_pool): AdaptiveAvgPool2d(output_size=1)
            (conv_du): Sequential(
              (0): Conv2d(32, 2, kernel_size=(1, 1), stride=(1, 1))
              (1): ReLU(inplace=True)
              (2): Conv2d(2, 32, kernel_size=(1, 1), stride=(1, 1))
              (3): Sigmoid()
            )
          )
        )
      )
      (18): RCAB(
        (body): Sequential(
          (0): Conv2d(32, 32, kernel_size=(3, 3), stride=(1, 1), padding=(1, 1))
          (1): ReLU(inplace=True)
          (2): Conv2d(32, 32, kernel_size=(3, 3), stride=(1, 1), padding=(1, 1))
          (3): CALayer(
            (avg_pool): AdaptiveAvgPool2d(output_size=1)
            (conv_du): Sequential(
              (0): Conv2d(32, 2, kernel_size=(1, 1), stride=(1, 1))
              (1): ReLU(inplace=True)
              (2): Conv2d(2, 32, kernel_size=(1, 1), stride=(1, 1))
              (3): Sigmoid()
            )
          )
        )
      )
      (19): RCAB(
        (body): Sequential(
          (0): Conv2d(32, 32, kernel_size=(3, 3), stride=(1, 1), padding=(1, 1))
          (1): ReLU(inplace=True)
          (2): Conv2d(32, 32, kernel_size=(3, 3), stride=(1, 1), padding=(1, 1))
          (3): CALayer(
            (avg_pool): AdaptiveAvgPool2d(output_size=1)
            (conv_du): Sequential(
              (0): Conv2d(32, 2, kernel_size=(1, 1), stride=(1, 1))
              (1): ReLU(inplace=True)
              (2): Conv2d(2, 32, kernel_size=(1, 1), stride=(1, 1))
              (3): Sigmoid()
            )
          )
        )
      )
      (20): RCAB(
        (body): Sequential(
          (0): Conv2d(32, 32, kernel_size=(3, 3), stride=(1, 1), padding=(1, 1))
          (1): ReLU(inplace=True)
          (2): Conv2d(32, 32, kernel_size=(3, 3), stride=(1, 1), padding=(1, 1))
          (3): CALayer(
            (avg_pool): AdaptiveAvgPool2d(output_size=1)
            (conv_du): Sequential(
              (0): Conv2d(32, 2, kernel_size=(1, 1), stride=(1, 1))
              (1): ReLU(inplace=True)
              (2): Conv2d(2, 32, kernel_size=(1, 1), stride=(1, 1))
              (3): Sigmoid()
            )
          )
        )
      )
      (21): RCAB(
        (body): Sequential(
          (0): Conv2d(32, 32, kernel_size=(3, 3), stride=(1, 1), padding=(1, 1))
          (1): ReLU(inplace=True)
          (2): Conv2d(32, 32, kernel_size=(3, 3), stride=(1, 1), padding=(1, 1))
          (3): CALayer(
            (avg_pool): AdaptiveAvgPool2d(output_size=1)
            (conv_du): Sequential(
              (0): Conv2d(32, 2, kernel_size=(1, 1), stride=(1, 1))
              (1): ReLU(inplace=True)
              (2): Conv2d(2, 32, kernel_size=(1, 1), stride=(1, 1))
              (3): Sigmoid()
            )
          )
        )
      )
      (22): RCAB(
        (body): Sequential(
          (0): Conv2d(32, 32, kernel_size=(3, 3), stride=(1, 1), padding=(1, 1))
          (1): ReLU(inplace=True)
          (2): Conv2d(32, 32, kernel_size=(3, 3), stride=(1, 1), padding=(1, 1))
          (3): CALayer(
            (avg_pool): AdaptiveAvgPool2d(output_size=1)
            (conv_du): Sequential(
              (0): Conv2d(32, 2, kernel_size=(1, 1), stride=(1, 1))
              (1): ReLU(inplace=True)
              (2): Conv2d(2, 32, kernel_size=(1, 1), stride=(1, 1))
              (3): Sigmoid()
            )
          )
        )
      )
      (23): RCAB(
        (body): Sequential(
          (0): Conv2d(32, 32, kernel_size=(3, 3), stride=(1, 1), padding=(1, 1))
          (1): ReLU(inplace=True)
          (2): Conv2d(32, 32, kernel_size=(3, 3), stride=(1, 1), padding=(1, 1))
          (3): CALayer(
            (avg_pool): AdaptiveAvgPool2d(output_size=1)
            (conv_du): Sequential(
              (0): Conv2d(32, 2, kernel_size=(1, 1), stride=(1, 1))
              (1): ReLU(inplace=True)
              (2): Conv2d(2, 32, kernel_size=(1, 1), stride=(1, 1))
              (3): Sigmoid()
            )
          )
        )
      )
      (24): RCAB(
        (body): Sequential(
          (0): Conv2d(32, 32, kernel_size=(3, 3), stride=(1, 1), padding=(1, 1))
          (1): ReLU(inplace=True)
          (2): Conv2d(32, 32, kernel_size=(3, 3), stride=(1, 1), padding=(1, 1))
          (3): CALayer(
            (avg_pool): AdaptiveAvgPool2d(output_size=1)
            (conv_du): Sequential(
              (0): Conv2d(32, 2, kernel_size=(1, 1), stride=(1, 1))
              (1): ReLU(inplace=True)
              (2): Conv2d(2, 32, kernel_size=(1, 1), stride=(1, 1))
              (3): Sigmoid()
            )
          )
        )
      )
      (25): RCAB(
        (body): Sequential(
          (0): Conv2d(32, 32, kernel_size=(3, 3), stride=(1, 1), padding=(1, 1))
          (1): ReLU(inplace=True)
          (2): Conv2d(32, 32, kernel_size=(3, 3), stride=(1, 1), padding=(1, 1))
          (3): CALayer(
            (avg_pool): AdaptiveAvgPool2d(output_size=1)
            (conv_du): Sequential(
              (0): Conv2d(32, 2, kernel_size=(1, 1), stride=(1, 1))
              (1): ReLU(inplace=True)
              (2): Conv2d(2, 32, kernel_size=(1, 1), stride=(1, 1))
              (3): Sigmoid()
            )
          )
        )
      )
      (26): RCAB(
        (body): Sequential(
          (0): Conv2d(32, 32, kernel_size=(3, 3), stride=(1, 1), padding=(1, 1))
          (1): ReLU(inplace=True)
          (2): Conv2d(32, 32, kernel_size=(3, 3), stride=(1, 1), padding=(1, 1))
          (3): CALayer(
            (avg_pool): AdaptiveAvgPool2d(output_size=1)
            (conv_du): Sequential(
              (0): Conv2d(32, 2, kernel_size=(1, 1), stride=(1, 1))
              (1): ReLU(inplace=True)
              (2): Conv2d(2, 32, kernel_size=(1, 1), stride=(1, 1))
              (3): Sigmoid()
            )
          )
        )
      )
      (27): RCAB(
        (body): Sequential(
          (0): Conv2d(32, 32, kernel_size=(3, 3), stride=(1, 1), padding=(1, 1))
          (1): ReLU(inplace=True)
          (2): Conv2d(32, 32, kernel_size=(3, 3), stride=(1, 1), padding=(1, 1))
          (3): CALayer(
            (avg_pool): AdaptiveAvgPool2d(output_size=1)
            (conv_du): Sequential(
              (0): Conv2d(32, 2, kernel_size=(1, 1), stride=(1, 1))
              (1): ReLU(inplace=True)
              (2): Conv2d(2, 32, kernel_size=(1, 1), stride=(1, 1))
              (3): Sigmoid()
            )
          )
        )
      )
      (28): RCAB(
        (body): Sequential(
          (0): Conv2d(32, 32, kernel_size=(3, 3), stride=(1, 1), padding=(1, 1))
          (1): ReLU(inplace=True)
          (2): Conv2d(32, 32, kernel_size=(3, 3), stride=(1, 1), padding=(1, 1))
          (3): CALayer(
            (avg_pool): AdaptiveAvgPool2d(output_size=1)
            (conv_du): Sequential(
              (0): Conv2d(32, 2, kernel_size=(1, 1), stride=(1, 1))
              (1): ReLU(inplace=True)
              (2): Conv2d(2, 32, kernel_size=(1, 1), stride=(1, 1))
              (3): Sigmoid()
            )
          )
        )
      )
      (29): RCAB(
        (body): Sequential(
          (0): Conv2d(32, 32, kernel_size=(3, 3), stride=(1, 1), padding=(1, 1))
          (1): ReLU(inplace=True)
          (2): Conv2d(32, 32, kernel_size=(3, 3), stride=(1, 1), padding=(1, 1))
          (3): CALayer(
            (avg_pool): AdaptiveAvgPool2d(output_size=1)
            (conv_du): Sequential(
              (0): Conv2d(32, 2, kernel_size=(1, 1), stride=(1, 1))
              (1): ReLU(inplace=True)
              (2): Conv2d(2, 32, kernel_size=(1, 1), stride=(1, 1))
              (3): Sigmoid()
            )
          )
        )
      )
      (30): Upsampler(
        (0): Conv2d(32, 128, kernel_size=(3, 3), stride=(1, 1), padding=(1, 1))
        (1): PixelShuffle(upscale_factor=2)
      )
      (31): Conv2d(32, 16, kernel_size=(1, 1), stride=(1, 1))
    )
  )
  (tail): ModuleList(
    (0): Conv2d(32, 3, kernel_size=(3, 3), stride=(1, 1), padding=(1, 1))
    (1): Conv2d(32, 3, kernel_size=(3, 3), stride=(1, 1), padding=(1, 1))
  )
  (add_mean): MeanShift(3, 3, kernel_size=(1, 1), stride=(1, 1))
)
[DownBlock(
  (dual_module): Sequential(
    (0): Sequential(
      (0): Conv2d(3, 16, kernel_size=(3, 3), stride=(2, 2), padding=(1, 1), bias=False)
      (1): LeakyReLU(negative_slope=0.2, inplace=True)
    )
    (1): Conv2d(16, 3, kernel_size=(3, 3), stride=(1, 1), padding=(1, 1), bias=False)
  )
)]
The number of parameters is 1.21M
[Epoch 1]	Learning rate: 1.00e-4
DRN(
  (dct): DCT()
  (SRCNN): NewCNN(
    (RCAB1): RCAB(
      (body): Sequential(
        (0): Conv2d(32, 32, kernel_size=(3, 3), stride=(1, 1), padding=(1, 1))
        (1): ReLU(inplace=True)
        (2): Conv2d(32, 32, kernel_size=(3, 3), stride=(1, 1), padding=(1, 1))
        (3): CALayer(
          (avg_pool): AdaptiveAvgPool2d(output_size=1)
          (conv_du): Sequential(
            (0): Conv2d(32, 2, kernel_size=(1, 1), stride=(1, 1))
            (1): ReLU(inplace=True)
            (2): Conv2d(2, 32, kernel_size=(1, 1), stride=(1, 1))
            (3): Sigmoid()
          )
        )
      )
    )
    (RCAB2): RCAB(
      (body): Sequential(
        (0): Conv2d(64, 64, kernel_size=(3, 3), stride=(1, 1), padding=(1, 1))
        (1): ReLU(inplace=True)
        (2): Conv2d(64, 64, kernel_size=(3, 3), stride=(1, 1), padding=(1, 1))
        (3): CALayer(
          (avg_pool): AdaptiveAvgPool2d(output_size=1)
          (conv_du): Sequential(
            (0): Conv2d(64, 4, kernel_size=(1, 1), stride=(1, 1))
            (1): ReLU(inplace=True)
            (2): Conv2d(4, 64, kernel_size=(1, 1), stride=(1, 1))
            (3): Sigmoid()
          )
        )
      )
    )
    (RCAB3): RCAB(
      (body): Sequential(
        (0): Conv2d(128, 128, kernel_size=(3, 3), stride=(1, 1), padding=(1, 1))
        (1): ReLU(inplace=True)
        (2): Conv2d(128, 128, kernel_size=(3, 3), stride=(1, 1), padding=(1, 1))
        (3): CALayer(
          (avg_pool): AdaptiveAvgPool2d(output_size=1)
          (conv_du): Sequential(
            (0): Conv2d(128, 8, kernel_size=(1, 1), stride=(1, 1))
            (1): ReLU(inplace=True)
            (2): Conv2d(8, 128, kernel_size=(1, 1), stride=(1, 1))
            (3): Sigmoid()
          )
        )
      )
    )
    (conv1): Conv2d(3, 32, kernel_size=(9, 9), stride=(1, 1), padding=(4, 4))
    (conv2): Conv2d(256, 32, kernel_size=(5, 5), stride=(1, 1), padding=(2, 2))
    (conv3): Conv2d(32, 3, kernel_size=(5, 5), stride=(1, 1), padding=(2, 2))
    (tail): Conv2d(3, 3, kernel_size=(3, 3), stride=(1, 1), padding=(1, 1))
  )
  (upsample): Upsample(scale_factor=2.0, mode=bicubic)
  (sub_mean): MeanShift(3, 3, kernel_size=(1, 1), stride=(1, 1))
  (head): Conv2d(3, 16, kernel_size=(3, 3), stride=(1, 1), padding=(1, 1))
  (down): ModuleList(
    (0): DownBlock(
      (dual_module): Sequential(
        (0): Sequential(
          (0): Conv2d(16, 16, kernel_size=(3, 3), stride=(2, 2), padding=(1, 1), bias=False)
          (1): LeakyReLU(negative_slope=0.2, inplace=True)
        )
        (1): Conv2d(16, 32, kernel_size=(3, 3), stride=(1, 1), padding=(1, 1), bias=False)
      )
    )
  )
  (up_blocks): ModuleList(
    (0): Sequential(
      (0): RCAB(
        (body): Sequential(
          (0): Conv2d(32, 32, kernel_size=(3, 3), stride=(1, 1), padding=(1, 1))
          (1): ReLU(inplace=True)
          (2): Conv2d(32, 32, kernel_size=(3, 3), stride=(1, 1), padding=(1, 1))
          (3): CALayer(
            (avg_pool): AdaptiveAvgPool2d(output_size=1)
            (conv_du): Sequential(
              (0): Conv2d(32, 2, kernel_size=(1, 1), stride=(1, 1))
              (1): ReLU(inplace=True)
              (2): Conv2d(2, 32, kernel_size=(1, 1), stride=(1, 1))
              (3): Sigmoid()
            )
          )
        )
      )
      (1): RCAB(
        (body): Sequential(
          (0): Conv2d(32, 32, kernel_size=(3, 3), stride=(1, 1), padding=(1, 1))
          (1): ReLU(inplace=True)
          (2): Conv2d(32, 32, kernel_size=(3, 3), stride=(1, 1), padding=(1, 1))
          (3): CALayer(
            (avg_pool): AdaptiveAvgPool2d(output_size=1)
            (conv_du): Sequential(
              (0): Conv2d(32, 2, kernel_size=(1, 1), stride=(1, 1))
              (1): ReLU(inplace=True)
              (2): Conv2d(2, 32, kernel_size=(1, 1), stride=(1, 1))
              (3): Sigmoid()
            )
          )
        )
      )
      (2): RCAB(
        (body): Sequential(
          (0): Conv2d(32, 32, kernel_size=(3, 3), stride=(1, 1), padding=(1, 1))
          (1): ReLU(inplace=True)
          (2): Conv2d(32, 32, kernel_size=(3, 3), stride=(1, 1), padding=(1, 1))
          (3): CALayer(
            (avg_pool): AdaptiveAvgPool2d(output_size=1)
            (conv_du): Sequential(
              (0): Conv2d(32, 2, kernel_size=(1, 1), stride=(1, 1))
              (1): ReLU(inplace=True)
              (2): Conv2d(2, 32, kernel_size=(1, 1), stride=(1, 1))
              (3): Sigmoid()
            )
          )
        )
      )
      (3): RCAB(
        (body): Sequential(
          (0): Conv2d(32, 32, kernel_size=(3, 3), stride=(1, 1), padding=(1, 1))
          (1): ReLU(inplace=True)
          (2): Conv2d(32, 32, kernel_size=(3, 3), stride=(1, 1), padding=(1, 1))
          (3): CALayer(
            (avg_pool): AdaptiveAvgPool2d(output_size=1)
            (conv_du): Sequential(
              (0): Conv2d(32, 2, kernel_size=(1, 1), stride=(1, 1))
              (1): ReLU(inplace=True)
              (2): Conv2d(2, 32, kernel_size=(1, 1), stride=(1, 1))
              (3): Sigmoid()
            )
          )
        )
      )
      (4): RCAB(
        (body): Sequential(
          (0): Conv2d(32, 32, kernel_size=(3, 3), stride=(1, 1), padding=(1, 1))
          (1): ReLU(inplace=True)
          (2): Conv2d(32, 32, kernel_size=(3, 3), stride=(1, 1), padding=(1, 1))
          (3): CALayer(
            (avg_pool): AdaptiveAvgPool2d(output_size=1)
            (conv_du): Sequential(
              (0): Conv2d(32, 2, kernel_size=(1, 1), stride=(1, 1))
              (1): ReLU(inplace=True)
              (2): Conv2d(2, 32, kernel_size=(1, 1), stride=(1, 1))
              (3): Sigmoid()
            )
          )
        )
      )
      (5): RCAB(
        (body): Sequential(
          (0): Conv2d(32, 32, kernel_size=(3, 3), stride=(1, 1), padding=(1, 1))
          (1): ReLU(inplace=True)
          (2): Conv2d(32, 32, kernel_size=(3, 3), stride=(1, 1), padding=(1, 1))
          (3): CALayer(
            (avg_pool): AdaptiveAvgPool2d(output_size=1)
            (conv_du): Sequential(
              (0): Conv2d(32, 2, kernel_size=(1, 1), stride=(1, 1))
              (1): ReLU(inplace=True)
              (2): Conv2d(2, 32, kernel_size=(1, 1), stride=(1, 1))
              (3): Sigmoid()
            )
          )
        )
      )
      (6): RCAB(
        (body): Sequential(
          (0): Conv2d(32, 32, kernel_size=(3, 3), stride=(1, 1), padding=(1, 1))
          (1): ReLU(inplace=True)
          (2): Conv2d(32, 32, kernel_size=(3, 3), stride=(1, 1), padding=(1, 1))
          (3): CALayer(
            (avg_pool): AdaptiveAvgPool2d(output_size=1)
            (conv_du): Sequential(
              (0): Conv2d(32, 2, kernel_size=(1, 1), stride=(1, 1))
              (1): ReLU(inplace=True)
              (2): Conv2d(2, 32, kernel_size=(1, 1), stride=(1, 1))
              (3): Sigmoid()
            )
          )
        )
      )
      (7): RCAB(
        (body): Sequential(
          (0): Conv2d(32, 32, kernel_size=(3, 3), stride=(1, 1), padding=(1, 1))
          (1): ReLU(inplace=True)
          (2): Conv2d(32, 32, kernel_size=(3, 3), stride=(1, 1), padding=(1, 1))
          (3): CALayer(
            (avg_pool): AdaptiveAvgPool2d(output_size=1)
            (conv_du): Sequential(
              (0): Conv2d(32, 2, kernel_size=(1, 1), stride=(1, 1))
              (1): ReLU(inplace=True)
              (2): Conv2d(2, 32, kernel_size=(1, 1), stride=(1, 1))
              (3): Sigmoid()
            )
          )
        )
      )
      (8): RCAB(
        (body): Sequential(
          (0): Conv2d(32, 32, kernel_size=(3, 3), stride=(1, 1), padding=(1, 1))
          (1): ReLU(inplace=True)
          (2): Conv2d(32, 32, kernel_size=(3, 3), stride=(1, 1), padding=(1, 1))
          (3): CALayer(
            (avg_pool): AdaptiveAvgPool2d(output_size=1)
            (conv_du): Sequential(
              (0): Conv2d(32, 2, kernel_size=(1, 1), stride=(1, 1))
              (1): ReLU(inplace=True)
              (2): Conv2d(2, 32, kernel_size=(1, 1), stride=(1, 1))
              (3): Sigmoid()
            )
          )
        )
      )
      (9): RCAB(
        (body): Sequential(
          (0): Conv2d(32, 32, kernel_size=(3, 3), stride=(1, 1), padding=(1, 1))
          (1): ReLU(inplace=True)
          (2): Conv2d(32, 32, kernel_size=(3, 3), stride=(1, 1), padding=(1, 1))
          (3): CALayer(
            (avg_pool): AdaptiveAvgPool2d(output_size=1)
            (conv_du): Sequential(
              (0): Conv2d(32, 2, kernel_size=(1, 1), stride=(1, 1))
              (1): ReLU(inplace=True)
              (2): Conv2d(2, 32, kernel_size=(1, 1), stride=(1, 1))
              (3): Sigmoid()
            )
          )
        )
      )
      (10): RCAB(
        (body): Sequential(
          (0): Conv2d(32, 32, kernel_size=(3, 3), stride=(1, 1), padding=(1, 1))
          (1): ReLU(inplace=True)
          (2): Conv2d(32, 32, kernel_size=(3, 3), stride=(1, 1), padding=(1, 1))
          (3): CALayer(
            (avg_pool): AdaptiveAvgPool2d(output_size=1)
            (conv_du): Sequential(
              (0): Conv2d(32, 2, kernel_size=(1, 1), stride=(1, 1))
              (1): ReLU(inplace=True)
              (2): Conv2d(2, 32, kernel_size=(1, 1), stride=(1, 1))
              (3): Sigmoid()
            )
          )
        )
      )
      (11): RCAB(
        (body): Sequential(
          (0): Conv2d(32, 32, kernel_size=(3, 3), stride=(1, 1), padding=(1, 1))
          (1): ReLU(inplace=True)
          (2): Conv2d(32, 32, kernel_size=(3, 3), stride=(1, 1), padding=(1, 1))
          (3): CALayer(
            (avg_pool): AdaptiveAvgPool2d(output_size=1)
            (conv_du): Sequential(
              (0): Conv2d(32, 2, kernel_size=(1, 1), stride=(1, 1))
              (1): ReLU(inplace=True)
              (2): Conv2d(2, 32, kernel_size=(1, 1), stride=(1, 1))
              (3): Sigmoid()
            )
          )
        )
      )
      (12): RCAB(
        (body): Sequential(
          (0): Conv2d(32, 32, kernel_size=(3, 3), stride=(1, 1), padding=(1, 1))
          (1): ReLU(inplace=True)
          (2): Conv2d(32, 32, kernel_size=(3, 3), stride=(1, 1), padding=(1, 1))
          (3): CALayer(
            (avg_pool): AdaptiveAvgPool2d(output_size=1)
            (conv_du): Sequential(
              (0): Conv2d(32, 2, kernel_size=(1, 1), stride=(1, 1))
              (1): ReLU(inplace=True)
              (2): Conv2d(2, 32, kernel_size=(1, 1), stride=(1, 1))
              (3): Sigmoid()
            )
          )
        )
      )
      (13): RCAB(
        (body): Sequential(
          (0): Conv2d(32, 32, kernel_size=(3, 3), stride=(1, 1), padding=(1, 1))
          (1): ReLU(inplace=True)
          (2): Conv2d(32, 32, kernel_size=(3, 3), stride=(1, 1), padding=(1, 1))
          (3): CALayer(
            (avg_pool): AdaptiveAvgPool2d(output_size=1)
            (conv_du): Sequential(
              (0): Conv2d(32, 2, kernel_size=(1, 1), stride=(1, 1))
              (1): ReLU(inplace=True)
              (2): Conv2d(2, 32, kernel_size=(1, 1), stride=(1, 1))
              (3): Sigmoid()
            )
          )
        )
      )
      (14): RCAB(
        (body): Sequential(
          (0): Conv2d(32, 32, kernel_size=(3, 3), stride=(1, 1), padding=(1, 1))
          (1): ReLU(inplace=True)
          (2): Conv2d(32, 32, kernel_size=(3, 3), stride=(1, 1), padding=(1, 1))
          (3): CALayer(
            (avg_pool): AdaptiveAvgPool2d(output_size=1)
            (conv_du): Sequential(
              (0): Conv2d(32, 2, kernel_size=(1, 1), stride=(1, 1))
              (1): ReLU(inplace=True)
              (2): Conv2d(2, 32, kernel_size=(1, 1), stride=(1, 1))
              (3): Sigmoid()
            )
          )
        )
      )
      (15): RCAB(
        (body): Sequential(
          (0): Conv2d(32, 32, kernel_size=(3, 3), stride=(1, 1), padding=(1, 1))
          (1): ReLU(inplace=True)
          (2): Conv2d(32, 32, kernel_size=(3, 3), stride=(1, 1), padding=(1, 1))
          (3): CALayer(
            (avg_pool): AdaptiveAvgPool2d(output_size=1)
            (conv_du): Sequential(
              (0): Conv2d(32, 2, kernel_size=(1, 1), stride=(1, 1))
              (1): ReLU(inplace=True)
              (2): Conv2d(2, 32, kernel_size=(1, 1), stride=(1, 1))
              (3): Sigmoid()
            )
          )
        )
      )
      (16): RCAB(
        (body): Sequential(
          (0): Conv2d(32, 32, kernel_size=(3, 3), stride=(1, 1), padding=(1, 1))
          (1): ReLU(inplace=True)
          (2): Conv2d(32, 32, kernel_size=(3, 3), stride=(1, 1), padding=(1, 1))
          (3): CALayer(
            (avg_pool): AdaptiveAvgPool2d(output_size=1)
            (conv_du): Sequential(
              (0): Conv2d(32, 2, kernel_size=(1, 1), stride=(1, 1))
              (1): ReLU(inplace=True)
              (2): Conv2d(2, 32, kernel_size=(1, 1), stride=(1, 1))
              (3): Sigmoid()
            )
          )
        )
      )
      (17): RCAB(
        (body): Sequential(
          (0): Conv2d(32, 32, kernel_size=(3, 3), stride=(1, 1), padding=(1, 1))
          (1): ReLU(inplace=True)
          (2): Conv2d(32, 32, kernel_size=(3, 3), stride=(1, 1), padding=(1, 1))
          (3): CALayer(
            (avg_pool): AdaptiveAvgPool2d(output_size=1)
            (conv_du): Sequential(
              (0): Conv2d(32, 2, kernel_size=(1, 1), stride=(1, 1))
              (1): ReLU(inplace=True)
              (2): Conv2d(2, 32, kernel_size=(1, 1), stride=(1, 1))
              (3): Sigmoid()
            )
          )
        )
      )
      (18): RCAB(
        (body): Sequential(
          (0): Conv2d(32, 32, kernel_size=(3, 3), stride=(1, 1), padding=(1, 1))
          (1): ReLU(inplace=True)
          (2): Conv2d(32, 32, kernel_size=(3, 3), stride=(1, 1), padding=(1, 1))
          (3): CALayer(
            (avg_pool): AdaptiveAvgPool2d(output_size=1)
            (conv_du): Sequential(
              (0): Conv2d(32, 2, kernel_size=(1, 1), stride=(1, 1))
              (1): ReLU(inplace=True)
              (2): Conv2d(2, 32, kernel_size=(1, 1), stride=(1, 1))
              (3): Sigmoid()
            )
          )
        )
      )
      (19): RCAB(
        (body): Sequential(
          (0): Conv2d(32, 32, kernel_size=(3, 3), stride=(1, 1), padding=(1, 1))
          (1): ReLU(inplace=True)
          (2): Conv2d(32, 32, kernel_size=(3, 3), stride=(1, 1), padding=(1, 1))
          (3): CALayer(
            (avg_pool): AdaptiveAvgPool2d(output_size=1)
            (conv_du): Sequential(
              (0): Conv2d(32, 2, kernel_size=(1, 1), stride=(1, 1))
              (1): ReLU(inplace=True)
              (2): Conv2d(2, 32, kernel_size=(1, 1), stride=(1, 1))
              (3): Sigmoid()
            )
          )
        )
      )
      (20): RCAB(
        (body): Sequential(
          (0): Conv2d(32, 32, kernel_size=(3, 3), stride=(1, 1), padding=(1, 1))
          (1): ReLU(inplace=True)
          (2): Conv2d(32, 32, kernel_size=(3, 3), stride=(1, 1), padding=(1, 1))
          (3): CALayer(
            (avg_pool): AdaptiveAvgPool2d(output_size=1)
            (conv_du): Sequential(
              (0): Conv2d(32, 2, kernel_size=(1, 1), stride=(1, 1))
              (1): ReLU(inplace=True)
              (2): Conv2d(2, 32, kernel_size=(1, 1), stride=(1, 1))
              (3): Sigmoid()
            )
          )
        )
      )
      (21): RCAB(
        (body): Sequential(
          (0): Conv2d(32, 32, kernel_size=(3, 3), stride=(1, 1), padding=(1, 1))
          (1): ReLU(inplace=True)
          (2): Conv2d(32, 32, kernel_size=(3, 3), stride=(1, 1), padding=(1, 1))
          (3): CALayer(
            (avg_pool): AdaptiveAvgPool2d(output_size=1)
            (conv_du): Sequential(
              (0): Conv2d(32, 2, kernel_size=(1, 1), stride=(1, 1))
              (1): ReLU(inplace=True)
              (2): Conv2d(2, 32, kernel_size=(1, 1), stride=(1, 1))
              (3): Sigmoid()
            )
          )
        )
      )
      (22): RCAB(
        (body): Sequential(
          (0): Conv2d(32, 32, kernel_size=(3, 3), stride=(1, 1), padding=(1, 1))
          (1): ReLU(inplace=True)
          (2): Conv2d(32, 32, kernel_size=(3, 3), stride=(1, 1), padding=(1, 1))
          (3): CALayer(
            (avg_pool): AdaptiveAvgPool2d(output_size=1)
            (conv_du): Sequential(
              (0): Conv2d(32, 2, kernel_size=(1, 1), stride=(1, 1))
              (1): ReLU(inplace=True)
              (2): Conv2d(2, 32, kernel_size=(1, 1), stride=(1, 1))
              (3): Sigmoid()
            )
          )
        )
      )
      (23): RCAB(
        (body): Sequential(
          (0): Conv2d(32, 32, kernel_size=(3, 3), stride=(1, 1), padding=(1, 1))
          (1): ReLU(inplace=True)
          (2): Conv2d(32, 32, kernel_size=(3, 3), stride=(1, 1), padding=(1, 1))
          (3): CALayer(
            (avg_pool): AdaptiveAvgPool2d(output_size=1)
            (conv_du): Sequential(
              (0): Conv2d(32, 2, kernel_size=(1, 1), stride=(1, 1))
              (1): ReLU(inplace=True)
              (2): Conv2d(2, 32, kernel_size=(1, 1), stride=(1, 1))
              (3): Sigmoid()
            )
          )
        )
      )
      (24): RCAB(
        (body): Sequential(
          (0): Conv2d(32, 32, kernel_size=(3, 3), stride=(1, 1), padding=(1, 1))
          (1): ReLU(inplace=True)
          (2): Conv2d(32, 32, kernel_size=(3, 3), stride=(1, 1), padding=(1, 1))
          (3): CALayer(
            (avg_pool): AdaptiveAvgPool2d(output_size=1)
            (conv_du): Sequential(
              (0): Conv2d(32, 2, kernel_size=(1, 1), stride=(1, 1))
              (1): ReLU(inplace=True)
              (2): Conv2d(2, 32, kernel_size=(1, 1), stride=(1, 1))
              (3): Sigmoid()
            )
          )
        )
      )
      (25): RCAB(
        (body): Sequential(
          (0): Conv2d(32, 32, kernel_size=(3, 3), stride=(1, 1), padding=(1, 1))
          (1): ReLU(inplace=True)
          (2): Conv2d(32, 32, kernel_size=(3, 3), stride=(1, 1), padding=(1, 1))
          (3): CALayer(
            (avg_pool): AdaptiveAvgPool2d(output_size=1)
            (conv_du): Sequential(
              (0): Conv2d(32, 2, kernel_size=(1, 1), stride=(1, 1))
              (1): ReLU(inplace=True)
              (2): Conv2d(2, 32, kernel_size=(1, 1), stride=(1, 1))
              (3): Sigmoid()
            )
          )
        )
      )
      (26): RCAB(
        (body): Sequential(
          (0): Conv2d(32, 32, kernel_size=(3, 3), stride=(1, 1), padding=(1, 1))
          (1): ReLU(inplace=True)
          (2): Conv2d(32, 32, kernel_size=(3, 3), stride=(1, 1), padding=(1, 1))
          (3): CALayer(
            (avg_pool): AdaptiveAvgPool2d(output_size=1)
            (conv_du): Sequential(
              (0): Conv2d(32, 2, kernel_size=(1, 1), stride=(1, 1))
              (1): ReLU(inplace=True)
              (2): Conv2d(2, 32, kernel_size=(1, 1), stride=(1, 1))
              (3): Sigmoid()
            )
          )
        )
      )
      (27): RCAB(
        (body): Sequential(
          (0): Conv2d(32, 32, kernel_size=(3, 3), stride=(1, 1), padding=(1, 1))
          (1): ReLU(inplace=True)
          (2): Conv2d(32, 32, kernel_size=(3, 3), stride=(1, 1), padding=(1, 1))
          (3): CALayer(
            (avg_pool): AdaptiveAvgPool2d(output_size=1)
            (conv_du): Sequential(
              (0): Conv2d(32, 2, kernel_size=(1, 1), stride=(1, 1))
              (1): ReLU(inplace=True)
              (2): Conv2d(2, 32, kernel_size=(1, 1), stride=(1, 1))
              (3): Sigmoid()
            )
          )
        )
      )
      (28): RCAB(
        (body): Sequential(
          (0): Conv2d(32, 32, kernel_size=(3, 3), stride=(1, 1), padding=(1, 1))
          (1): ReLU(inplace=True)
          (2): Conv2d(32, 32, kernel_size=(3, 3), stride=(1, 1), padding=(1, 1))
          (3): CALayer(
            (avg_pool): AdaptiveAvgPool2d(output_size=1)
            (conv_du): Sequential(
              (0): Conv2d(32, 2, kernel_size=(1, 1), stride=(1, 1))
              (1): ReLU(inplace=True)
              (2): Conv2d(2, 32, kernel_size=(1, 1), stride=(1, 1))
              (3): Sigmoid()
            )
          )
        )
      )
      (29): RCAB(
        (body): Sequential(
          (0): Conv2d(32, 32, kernel_size=(3, 3), stride=(1, 1), padding=(1, 1))
          (1): ReLU(inplace=True)
          (2): Conv2d(32, 32, kernel_size=(3, 3), stride=(1, 1), padding=(1, 1))
          (3): CALayer(
            (avg_pool): AdaptiveAvgPool2d(output_size=1)
            (conv_du): Sequential(
              (0): Conv2d(32, 2, kernel_size=(1, 1), stride=(1, 1))
              (1): ReLU(inplace=True)
              (2): Conv2d(2, 32, kernel_size=(1, 1), stride=(1, 1))
              (3): Sigmoid()
            )
          )
        )
      )
      (30): Upsampler(
        (0): Conv2d(32, 128, kernel_size=(3, 3), stride=(1, 1), padding=(1, 1))
        (1): PixelShuffle(upscale_factor=2)
      )
      (31): Conv2d(32, 16, kernel_size=(1, 1), stride=(1, 1))
    )
  )
  (tail): ModuleList(
    (0): Conv2d(32, 3, kernel_size=(3, 3), stride=(1, 1), padding=(1, 1))
    (1): Conv2d(32, 3, kernel_size=(3, 3), stride=(1, 1), padding=(1, 1))
  )
  (add_mean): MeanShift(3, 3, kernel_size=(1, 1), stride=(1, 1))
)
[DownBlock(
  (dual_module): Sequential(
    (0): Sequential(
      (0): Conv2d(3, 16, kernel_size=(3, 3), stride=(2, 2), padding=(1, 1), bias=False)
      (1): LeakyReLU(negative_slope=0.2, inplace=True)
    )
    (1): Conv2d(16, 3, kernel_size=(3, 3), stride=(1, 1), padding=(1, 1), bias=False)
  )
)]
The number of parameters is 1.21M
[Epoch 1]	Learning rate: 1.00e-4
DRN(
  (dct): DCT()
  (SRCNN): NewCNN(
    (RCAB1): RCAB(
      (body): Sequential(
        (0): Conv2d(32, 32, kernel_size=(3, 3), stride=(1, 1), padding=(1, 1))
        (1): ReLU(inplace=True)
        (2): Conv2d(32, 32, kernel_size=(3, 3), stride=(1, 1), padding=(1, 1))
        (3): CALayer(
          (avg_pool): AdaptiveAvgPool2d(output_size=1)
          (conv_du): Sequential(
            (0): Conv2d(32, 2, kernel_size=(1, 1), stride=(1, 1))
            (1): ReLU(inplace=True)
            (2): Conv2d(2, 32, kernel_size=(1, 1), stride=(1, 1))
            (3): Sigmoid()
          )
        )
      )
    )
    (RCAB2): RCAB(
      (body): Sequential(
        (0): Conv2d(64, 64, kernel_size=(3, 3), stride=(1, 1), padding=(1, 1))
        (1): ReLU(inplace=True)
        (2): Conv2d(64, 64, kernel_size=(3, 3), stride=(1, 1), padding=(1, 1))
        (3): CALayer(
          (avg_pool): AdaptiveAvgPool2d(output_size=1)
          (conv_du): Sequential(
            (0): Conv2d(64, 4, kernel_size=(1, 1), stride=(1, 1))
            (1): ReLU(inplace=True)
            (2): Conv2d(4, 64, kernel_size=(1, 1), stride=(1, 1))
            (3): Sigmoid()
          )
        )
      )
    )
    (RCAB3): RCAB(
      (body): Sequential(
        (0): Conv2d(128, 128, kernel_size=(3, 3), stride=(1, 1), padding=(1, 1))
        (1): ReLU(inplace=True)
        (2): Conv2d(128, 128, kernel_size=(3, 3), stride=(1, 1), padding=(1, 1))
        (3): CALayer(
          (avg_pool): AdaptiveAvgPool2d(output_size=1)
          (conv_du): Sequential(
            (0): Conv2d(128, 8, kernel_size=(1, 1), stride=(1, 1))
            (1): ReLU(inplace=True)
            (2): Conv2d(8, 128, kernel_size=(1, 1), stride=(1, 1))
            (3): Sigmoid()
          )
        )
      )
    )
    (conv1): Conv2d(3, 32, kernel_size=(9, 9), stride=(1, 1), padding=(4, 4))
    (conv2): Conv2d(256, 32, kernel_size=(5, 5), stride=(1, 1), padding=(2, 2))
    (conv3): Conv2d(32, 3, kernel_size=(5, 5), stride=(1, 1), padding=(2, 2))
    (tail): Conv2d(3, 3, kernel_size=(3, 3), stride=(1, 1), padding=(1, 1))
  )
  (upsample): Upsample(scale_factor=2.0, mode=bicubic)
  (sub_mean): MeanShift(3, 3, kernel_size=(1, 1), stride=(1, 1))
  (head): Conv2d(3, 16, kernel_size=(3, 3), stride=(1, 1), padding=(1, 1))
  (down): ModuleList(
    (0): DownBlock(
      (dual_module): Sequential(
        (0): Sequential(
          (0): Conv2d(16, 16, kernel_size=(3, 3), stride=(2, 2), padding=(1, 1), bias=False)
          (1): LeakyReLU(negative_slope=0.2, inplace=True)
        )
        (1): Conv2d(16, 32, kernel_size=(3, 3), stride=(1, 1), padding=(1, 1), bias=False)
      )
    )
  )
  (up_blocks): ModuleList(
    (0): Sequential(
      (0): RCAB(
        (body): Sequential(
          (0): Conv2d(32, 32, kernel_size=(3, 3), stride=(1, 1), padding=(1, 1))
          (1): ReLU(inplace=True)
          (2): Conv2d(32, 32, kernel_size=(3, 3), stride=(1, 1), padding=(1, 1))
          (3): CALayer(
            (avg_pool): AdaptiveAvgPool2d(output_size=1)
            (conv_du): Sequential(
              (0): Conv2d(32, 2, kernel_size=(1, 1), stride=(1, 1))
              (1): ReLU(inplace=True)
              (2): Conv2d(2, 32, kernel_size=(1, 1), stride=(1, 1))
              (3): Sigmoid()
            )
          )
        )
      )
      (1): RCAB(
        (body): Sequential(
          (0): Conv2d(32, 32, kernel_size=(3, 3), stride=(1, 1), padding=(1, 1))
          (1): ReLU(inplace=True)
          (2): Conv2d(32, 32, kernel_size=(3, 3), stride=(1, 1), padding=(1, 1))
          (3): CALayer(
            (avg_pool): AdaptiveAvgPool2d(output_size=1)
            (conv_du): Sequential(
              (0): Conv2d(32, 2, kernel_size=(1, 1), stride=(1, 1))
              (1): ReLU(inplace=True)
              (2): Conv2d(2, 32, kernel_size=(1, 1), stride=(1, 1))
              (3): Sigmoid()
            )
          )
        )
      )
      (2): RCAB(
        (body): Sequential(
          (0): Conv2d(32, 32, kernel_size=(3, 3), stride=(1, 1), padding=(1, 1))
          (1): ReLU(inplace=True)
          (2): Conv2d(32, 32, kernel_size=(3, 3), stride=(1, 1), padding=(1, 1))
          (3): CALayer(
            (avg_pool): AdaptiveAvgPool2d(output_size=1)
            (conv_du): Sequential(
              (0): Conv2d(32, 2, kernel_size=(1, 1), stride=(1, 1))
              (1): ReLU(inplace=True)
              (2): Conv2d(2, 32, kernel_size=(1, 1), stride=(1, 1))
              (3): Sigmoid()
            )
          )
        )
      )
      (3): RCAB(
        (body): Sequential(
          (0): Conv2d(32, 32, kernel_size=(3, 3), stride=(1, 1), padding=(1, 1))
          (1): ReLU(inplace=True)
          (2): Conv2d(32, 32, kernel_size=(3, 3), stride=(1, 1), padding=(1, 1))
          (3): CALayer(
            (avg_pool): AdaptiveAvgPool2d(output_size=1)
            (conv_du): Sequential(
              (0): Conv2d(32, 2, kernel_size=(1, 1), stride=(1, 1))
              (1): ReLU(inplace=True)
              (2): Conv2d(2, 32, kernel_size=(1, 1), stride=(1, 1))
              (3): Sigmoid()
            )
          )
        )
      )
      (4): RCAB(
        (body): Sequential(
          (0): Conv2d(32, 32, kernel_size=(3, 3), stride=(1, 1), padding=(1, 1))
          (1): ReLU(inplace=True)
          (2): Conv2d(32, 32, kernel_size=(3, 3), stride=(1, 1), padding=(1, 1))
          (3): CALayer(
            (avg_pool): AdaptiveAvgPool2d(output_size=1)
            (conv_du): Sequential(
              (0): Conv2d(32, 2, kernel_size=(1, 1), stride=(1, 1))
              (1): ReLU(inplace=True)
              (2): Conv2d(2, 32, kernel_size=(1, 1), stride=(1, 1))
              (3): Sigmoid()
            )
          )
        )
      )
      (5): RCAB(
        (body): Sequential(
          (0): Conv2d(32, 32, kernel_size=(3, 3), stride=(1, 1), padding=(1, 1))
          (1): ReLU(inplace=True)
          (2): Conv2d(32, 32, kernel_size=(3, 3), stride=(1, 1), padding=(1, 1))
          (3): CALayer(
            (avg_pool): AdaptiveAvgPool2d(output_size=1)
            (conv_du): Sequential(
              (0): Conv2d(32, 2, kernel_size=(1, 1), stride=(1, 1))
              (1): ReLU(inplace=True)
              (2): Conv2d(2, 32, kernel_size=(1, 1), stride=(1, 1))
              (3): Sigmoid()
            )
          )
        )
      )
      (6): RCAB(
        (body): Sequential(
          (0): Conv2d(32, 32, kernel_size=(3, 3), stride=(1, 1), padding=(1, 1))
          (1): ReLU(inplace=True)
          (2): Conv2d(32, 32, kernel_size=(3, 3), stride=(1, 1), padding=(1, 1))
          (3): CALayer(
            (avg_pool): AdaptiveAvgPool2d(output_size=1)
            (conv_du): Sequential(
              (0): Conv2d(32, 2, kernel_size=(1, 1), stride=(1, 1))
              (1): ReLU(inplace=True)
              (2): Conv2d(2, 32, kernel_size=(1, 1), stride=(1, 1))
              (3): Sigmoid()
            )
          )
        )
      )
      (7): RCAB(
        (body): Sequential(
          (0): Conv2d(32, 32, kernel_size=(3, 3), stride=(1, 1), padding=(1, 1))
          (1): ReLU(inplace=True)
          (2): Conv2d(32, 32, kernel_size=(3, 3), stride=(1, 1), padding=(1, 1))
          (3): CALayer(
            (avg_pool): AdaptiveAvgPool2d(output_size=1)
            (conv_du): Sequential(
              (0): Conv2d(32, 2, kernel_size=(1, 1), stride=(1, 1))
              (1): ReLU(inplace=True)
              (2): Conv2d(2, 32, kernel_size=(1, 1), stride=(1, 1))
              (3): Sigmoid()
            )
          )
        )
      )
      (8): RCAB(
        (body): Sequential(
          (0): Conv2d(32, 32, kernel_size=(3, 3), stride=(1, 1), padding=(1, 1))
          (1): ReLU(inplace=True)
          (2): Conv2d(32, 32, kernel_size=(3, 3), stride=(1, 1), padding=(1, 1))
          (3): CALayer(
            (avg_pool): AdaptiveAvgPool2d(output_size=1)
            (conv_du): Sequential(
              (0): Conv2d(32, 2, kernel_size=(1, 1), stride=(1, 1))
              (1): ReLU(inplace=True)
              (2): Conv2d(2, 32, kernel_size=(1, 1), stride=(1, 1))
              (3): Sigmoid()
            )
          )
        )
      )
      (9): RCAB(
        (body): Sequential(
          (0): Conv2d(32, 32, kernel_size=(3, 3), stride=(1, 1), padding=(1, 1))
          (1): ReLU(inplace=True)
          (2): Conv2d(32, 32, kernel_size=(3, 3), stride=(1, 1), padding=(1, 1))
          (3): CALayer(
            (avg_pool): AdaptiveAvgPool2d(output_size=1)
            (conv_du): Sequential(
              (0): Conv2d(32, 2, kernel_size=(1, 1), stride=(1, 1))
              (1): ReLU(inplace=True)
              (2): Conv2d(2, 32, kernel_size=(1, 1), stride=(1, 1))
              (3): Sigmoid()
            )
          )
        )
      )
      (10): RCAB(
        (body): Sequential(
          (0): Conv2d(32, 32, kernel_size=(3, 3), stride=(1, 1), padding=(1, 1))
          (1): ReLU(inplace=True)
          (2): Conv2d(32, 32, kernel_size=(3, 3), stride=(1, 1), padding=(1, 1))
          (3): CALayer(
            (avg_pool): AdaptiveAvgPool2d(output_size=1)
            (conv_du): Sequential(
              (0): Conv2d(32, 2, kernel_size=(1, 1), stride=(1, 1))
              (1): ReLU(inplace=True)
              (2): Conv2d(2, 32, kernel_size=(1, 1), stride=(1, 1))
              (3): Sigmoid()
            )
          )
        )
      )
      (11): RCAB(
        (body): Sequential(
          (0): Conv2d(32, 32, kernel_size=(3, 3), stride=(1, 1), padding=(1, 1))
          (1): ReLU(inplace=True)
          (2): Conv2d(32, 32, kernel_size=(3, 3), stride=(1, 1), padding=(1, 1))
          (3): CALayer(
            (avg_pool): AdaptiveAvgPool2d(output_size=1)
            (conv_du): Sequential(
              (0): Conv2d(32, 2, kernel_size=(1, 1), stride=(1, 1))
              (1): ReLU(inplace=True)
              (2): Conv2d(2, 32, kernel_size=(1, 1), stride=(1, 1))
              (3): Sigmoid()
            )
          )
        )
      )
      (12): RCAB(
        (body): Sequential(
          (0): Conv2d(32, 32, kernel_size=(3, 3), stride=(1, 1), padding=(1, 1))
          (1): ReLU(inplace=True)
          (2): Conv2d(32, 32, kernel_size=(3, 3), stride=(1, 1), padding=(1, 1))
          (3): CALayer(
            (avg_pool): AdaptiveAvgPool2d(output_size=1)
            (conv_du): Sequential(
              (0): Conv2d(32, 2, kernel_size=(1, 1), stride=(1, 1))
              (1): ReLU(inplace=True)
              (2): Conv2d(2, 32, kernel_size=(1, 1), stride=(1, 1))
              (3): Sigmoid()
            )
          )
        )
      )
      (13): RCAB(
        (body): Sequential(
          (0): Conv2d(32, 32, kernel_size=(3, 3), stride=(1, 1), padding=(1, 1))
          (1): ReLU(inplace=True)
          (2): Conv2d(32, 32, kernel_size=(3, 3), stride=(1, 1), padding=(1, 1))
          (3): CALayer(
            (avg_pool): AdaptiveAvgPool2d(output_size=1)
            (conv_du): Sequential(
              (0): Conv2d(32, 2, kernel_size=(1, 1), stride=(1, 1))
              (1): ReLU(inplace=True)
              (2): Conv2d(2, 32, kernel_size=(1, 1), stride=(1, 1))
              (3): Sigmoid()
            )
          )
        )
      )
      (14): RCAB(
        (body): Sequential(
          (0): Conv2d(32, 32, kernel_size=(3, 3), stride=(1, 1), padding=(1, 1))
          (1): ReLU(inplace=True)
          (2): Conv2d(32, 32, kernel_size=(3, 3), stride=(1, 1), padding=(1, 1))
          (3): CALayer(
            (avg_pool): AdaptiveAvgPool2d(output_size=1)
            (conv_du): Sequential(
              (0): Conv2d(32, 2, kernel_size=(1, 1), stride=(1, 1))
              (1): ReLU(inplace=True)
              (2): Conv2d(2, 32, kernel_size=(1, 1), stride=(1, 1))
              (3): Sigmoid()
            )
          )
        )
      )
      (15): RCAB(
        (body): Sequential(
          (0): Conv2d(32, 32, kernel_size=(3, 3), stride=(1, 1), padding=(1, 1))
          (1): ReLU(inplace=True)
          (2): Conv2d(32, 32, kernel_size=(3, 3), stride=(1, 1), padding=(1, 1))
          (3): CALayer(
            (avg_pool): AdaptiveAvgPool2d(output_size=1)
            (conv_du): Sequential(
              (0): Conv2d(32, 2, kernel_size=(1, 1), stride=(1, 1))
              (1): ReLU(inplace=True)
              (2): Conv2d(2, 32, kernel_size=(1, 1), stride=(1, 1))
              (3): Sigmoid()
            )
          )
        )
      )
      (16): RCAB(
        (body): Sequential(
          (0): Conv2d(32, 32, kernel_size=(3, 3), stride=(1, 1), padding=(1, 1))
          (1): ReLU(inplace=True)
          (2): Conv2d(32, 32, kernel_size=(3, 3), stride=(1, 1), padding=(1, 1))
          (3): CALayer(
            (avg_pool): AdaptiveAvgPool2d(output_size=1)
            (conv_du): Sequential(
              (0): Conv2d(32, 2, kernel_size=(1, 1), stride=(1, 1))
              (1): ReLU(inplace=True)
              (2): Conv2d(2, 32, kernel_size=(1, 1), stride=(1, 1))
              (3): Sigmoid()
            )
          )
        )
      )
      (17): RCAB(
        (body): Sequential(
          (0): Conv2d(32, 32, kernel_size=(3, 3), stride=(1, 1), padding=(1, 1))
          (1): ReLU(inplace=True)
          (2): Conv2d(32, 32, kernel_size=(3, 3), stride=(1, 1), padding=(1, 1))
          (3): CALayer(
            (avg_pool): AdaptiveAvgPool2d(output_size=1)
            (conv_du): Sequential(
              (0): Conv2d(32, 2, kernel_size=(1, 1), stride=(1, 1))
              (1): ReLU(inplace=True)
              (2): Conv2d(2, 32, kernel_size=(1, 1), stride=(1, 1))
              (3): Sigmoid()
            )
          )
        )
      )
      (18): RCAB(
        (body): Sequential(
          (0): Conv2d(32, 32, kernel_size=(3, 3), stride=(1, 1), padding=(1, 1))
          (1): ReLU(inplace=True)
          (2): Conv2d(32, 32, kernel_size=(3, 3), stride=(1, 1), padding=(1, 1))
          (3): CALayer(
            (avg_pool): AdaptiveAvgPool2d(output_size=1)
            (conv_du): Sequential(
              (0): Conv2d(32, 2, kernel_size=(1, 1), stride=(1, 1))
              (1): ReLU(inplace=True)
              (2): Conv2d(2, 32, kernel_size=(1, 1), stride=(1, 1))
              (3): Sigmoid()
            )
          )
        )
      )
      (19): RCAB(
        (body): Sequential(
          (0): Conv2d(32, 32, kernel_size=(3, 3), stride=(1, 1), padding=(1, 1))
          (1): ReLU(inplace=True)
          (2): Conv2d(32, 32, kernel_size=(3, 3), stride=(1, 1), padding=(1, 1))
          (3): CALayer(
            (avg_pool): AdaptiveAvgPool2d(output_size=1)
            (conv_du): Sequential(
              (0): Conv2d(32, 2, kernel_size=(1, 1), stride=(1, 1))
              (1): ReLU(inplace=True)
              (2): Conv2d(2, 32, kernel_size=(1, 1), stride=(1, 1))
              (3): Sigmoid()
            )
          )
        )
      )
      (20): RCAB(
        (body): Sequential(
          (0): Conv2d(32, 32, kernel_size=(3, 3), stride=(1, 1), padding=(1, 1))
          (1): ReLU(inplace=True)
          (2): Conv2d(32, 32, kernel_size=(3, 3), stride=(1, 1), padding=(1, 1))
          (3): CALayer(
            (avg_pool): AdaptiveAvgPool2d(output_size=1)
            (conv_du): Sequential(
              (0): Conv2d(32, 2, kernel_size=(1, 1), stride=(1, 1))
              (1): ReLU(inplace=True)
              (2): Conv2d(2, 32, kernel_size=(1, 1), stride=(1, 1))
              (3): Sigmoid()
            )
          )
        )
      )
      (21): RCAB(
        (body): Sequential(
          (0): Conv2d(32, 32, kernel_size=(3, 3), stride=(1, 1), padding=(1, 1))
          (1): ReLU(inplace=True)
          (2): Conv2d(32, 32, kernel_size=(3, 3), stride=(1, 1), padding=(1, 1))
          (3): CALayer(
            (avg_pool): AdaptiveAvgPool2d(output_size=1)
            (conv_du): Sequential(
              (0): Conv2d(32, 2, kernel_size=(1, 1), stride=(1, 1))
              (1): ReLU(inplace=True)
              (2): Conv2d(2, 32, kernel_size=(1, 1), stride=(1, 1))
              (3): Sigmoid()
            )
          )
        )
      )
      (22): RCAB(
        (body): Sequential(
          (0): Conv2d(32, 32, kernel_size=(3, 3), stride=(1, 1), padding=(1, 1))
          (1): ReLU(inplace=True)
          (2): Conv2d(32, 32, kernel_size=(3, 3), stride=(1, 1), padding=(1, 1))
          (3): CALayer(
            (avg_pool): AdaptiveAvgPool2d(output_size=1)
            (conv_du): Sequential(
              (0): Conv2d(32, 2, kernel_size=(1, 1), stride=(1, 1))
              (1): ReLU(inplace=True)
              (2): Conv2d(2, 32, kernel_size=(1, 1), stride=(1, 1))
              (3): Sigmoid()
            )
          )
        )
      )
      (23): RCAB(
        (body): Sequential(
          (0): Conv2d(32, 32, kernel_size=(3, 3), stride=(1, 1), padding=(1, 1))
          (1): ReLU(inplace=True)
          (2): Conv2d(32, 32, kernel_size=(3, 3), stride=(1, 1), padding=(1, 1))
          (3): CALayer(
            (avg_pool): AdaptiveAvgPool2d(output_size=1)
            (conv_du): Sequential(
              (0): Conv2d(32, 2, kernel_size=(1, 1), stride=(1, 1))
              (1): ReLU(inplace=True)
              (2): Conv2d(2, 32, kernel_size=(1, 1), stride=(1, 1))
              (3): Sigmoid()
            )
          )
        )
      )
      (24): RCAB(
        (body): Sequential(
          (0): Conv2d(32, 32, kernel_size=(3, 3), stride=(1, 1), padding=(1, 1))
          (1): ReLU(inplace=True)
          (2): Conv2d(32, 32, kernel_size=(3, 3), stride=(1, 1), padding=(1, 1))
          (3): CALayer(
            (avg_pool): AdaptiveAvgPool2d(output_size=1)
            (conv_du): Sequential(
              (0): Conv2d(32, 2, kernel_size=(1, 1), stride=(1, 1))
              (1): ReLU(inplace=True)
              (2): Conv2d(2, 32, kernel_size=(1, 1), stride=(1, 1))
              (3): Sigmoid()
            )
          )
        )
      )
      (25): RCAB(
        (body): Sequential(
          (0): Conv2d(32, 32, kernel_size=(3, 3), stride=(1, 1), padding=(1, 1))
          (1): ReLU(inplace=True)
          (2): Conv2d(32, 32, kernel_size=(3, 3), stride=(1, 1), padding=(1, 1))
          (3): CALayer(
            (avg_pool): AdaptiveAvgPool2d(output_size=1)
            (conv_du): Sequential(
              (0): Conv2d(32, 2, kernel_size=(1, 1), stride=(1, 1))
              (1): ReLU(inplace=True)
              (2): Conv2d(2, 32, kernel_size=(1, 1), stride=(1, 1))
              (3): Sigmoid()
            )
          )
        )
      )
      (26): RCAB(
        (body): Sequential(
          (0): Conv2d(32, 32, kernel_size=(3, 3), stride=(1, 1), padding=(1, 1))
          (1): ReLU(inplace=True)
          (2): Conv2d(32, 32, kernel_size=(3, 3), stride=(1, 1), padding=(1, 1))
          (3): CALayer(
            (avg_pool): AdaptiveAvgPool2d(output_size=1)
            (conv_du): Sequential(
              (0): Conv2d(32, 2, kernel_size=(1, 1), stride=(1, 1))
              (1): ReLU(inplace=True)
              (2): Conv2d(2, 32, kernel_size=(1, 1), stride=(1, 1))
              (3): Sigmoid()
            )
          )
        )
      )
      (27): RCAB(
        (body): Sequential(
          (0): Conv2d(32, 32, kernel_size=(3, 3), stride=(1, 1), padding=(1, 1))
          (1): ReLU(inplace=True)
          (2): Conv2d(32, 32, kernel_size=(3, 3), stride=(1, 1), padding=(1, 1))
          (3): CALayer(
            (avg_pool): AdaptiveAvgPool2d(output_size=1)
            (conv_du): Sequential(
              (0): Conv2d(32, 2, kernel_size=(1, 1), stride=(1, 1))
              (1): ReLU(inplace=True)
              (2): Conv2d(2, 32, kernel_size=(1, 1), stride=(1, 1))
              (3): Sigmoid()
            )
          )
        )
      )
      (28): RCAB(
        (body): Sequential(
          (0): Conv2d(32, 32, kernel_size=(3, 3), stride=(1, 1), padding=(1, 1))
          (1): ReLU(inplace=True)
          (2): Conv2d(32, 32, kernel_size=(3, 3), stride=(1, 1), padding=(1, 1))
          (3): CALayer(
            (avg_pool): AdaptiveAvgPool2d(output_size=1)
            (conv_du): Sequential(
              (0): Conv2d(32, 2, kernel_size=(1, 1), stride=(1, 1))
              (1): ReLU(inplace=True)
              (2): Conv2d(2, 32, kernel_size=(1, 1), stride=(1, 1))
              (3): Sigmoid()
            )
          )
        )
      )
      (29): RCAB(
        (body): Sequential(
          (0): Conv2d(32, 32, kernel_size=(3, 3), stride=(1, 1), padding=(1, 1))
          (1): ReLU(inplace=True)
          (2): Conv2d(32, 32, kernel_size=(3, 3), stride=(1, 1), padding=(1, 1))
          (3): CALayer(
            (avg_pool): AdaptiveAvgPool2d(output_size=1)
            (conv_du): Sequential(
              (0): Conv2d(32, 2, kernel_size=(1, 1), stride=(1, 1))
              (1): ReLU(inplace=True)
              (2): Conv2d(2, 32, kernel_size=(1, 1), stride=(1, 1))
              (3): Sigmoid()
            )
          )
        )
      )
      (30): Upsampler(
        (0): Conv2d(32, 128, kernel_size=(3, 3), stride=(1, 1), padding=(1, 1))
        (1): PixelShuffle(upscale_factor=2)
      )
      (31): Conv2d(32, 16, kernel_size=(1, 1), stride=(1, 1))
    )
  )
  (tail): ModuleList(
    (0): Conv2d(32, 3, kernel_size=(3, 3), stride=(1, 1), padding=(1, 1))
    (1): Conv2d(32, 3, kernel_size=(3, 3), stride=(1, 1), padding=(1, 1))
  )
  (add_mean): MeanShift(3, 3, kernel_size=(1, 1), stride=(1, 1))
)
[DownBlock(
  (dual_module): Sequential(
    (0): Sequential(
      (0): Conv2d(3, 16, kernel_size=(3, 3), stride=(2, 2), padding=(1, 1), bias=False)
      (1): LeakyReLU(negative_slope=0.2, inplace=True)
    )
    (1): Conv2d(16, 3, kernel_size=(3, 3), stride=(1, 1), padding=(1, 1), bias=False)
  )
)]
The number of parameters is 1.21M
[Epoch 1]	Learning rate: 1.00e-4
DRN(
  (dct): DCT()
  (SRCNN): NewCNN(
    (RCAB1): RCAB(
      (body): Sequential(
        (0): Conv2d(32, 32, kernel_size=(3, 3), stride=(1, 1), padding=(1, 1))
        (1): ReLU(inplace=True)
        (2): Conv2d(32, 32, kernel_size=(3, 3), stride=(1, 1), padding=(1, 1))
        (3): CALayer(
          (avg_pool): AdaptiveAvgPool2d(output_size=1)
          (conv_du): Sequential(
            (0): Conv2d(32, 2, kernel_size=(1, 1), stride=(1, 1))
            (1): ReLU(inplace=True)
            (2): Conv2d(2, 32, kernel_size=(1, 1), stride=(1, 1))
            (3): Sigmoid()
          )
        )
      )
    )
    (RCAB2): RCAB(
      (body): Sequential(
        (0): Conv2d(64, 64, kernel_size=(3, 3), stride=(1, 1), padding=(1, 1))
        (1): ReLU(inplace=True)
        (2): Conv2d(64, 64, kernel_size=(3, 3), stride=(1, 1), padding=(1, 1))
        (3): CALayer(
          (avg_pool): AdaptiveAvgPool2d(output_size=1)
          (conv_du): Sequential(
            (0): Conv2d(64, 4, kernel_size=(1, 1), stride=(1, 1))
            (1): ReLU(inplace=True)
            (2): Conv2d(4, 64, kernel_size=(1, 1), stride=(1, 1))
            (3): Sigmoid()
          )
        )
      )
    )
    (RCAB3): RCAB(
      (body): Sequential(
        (0): Conv2d(128, 128, kernel_size=(3, 3), stride=(1, 1), padding=(1, 1))
        (1): ReLU(inplace=True)
        (2): Conv2d(128, 128, kernel_size=(3, 3), stride=(1, 1), padding=(1, 1))
        (3): CALayer(
          (avg_pool): AdaptiveAvgPool2d(output_size=1)
          (conv_du): Sequential(
            (0): Conv2d(128, 8, kernel_size=(1, 1), stride=(1, 1))
            (1): ReLU(inplace=True)
            (2): Conv2d(8, 128, kernel_size=(1, 1), stride=(1, 1))
            (3): Sigmoid()
          )
        )
      )
    )
    (conv1): Conv2d(3, 32, kernel_size=(9, 9), stride=(1, 1), padding=(4, 4))
    (conv2): Conv2d(256, 32, kernel_size=(5, 5), stride=(1, 1), padding=(2, 2))
    (conv3): Conv2d(32, 3, kernel_size=(5, 5), stride=(1, 1), padding=(2, 2))
    (tail): Conv2d(3, 3, kernel_size=(3, 3), stride=(1, 1), padding=(1, 1))
  )
  (upsample): Upsample(scale_factor=2.0, mode=bicubic)
  (sub_mean): MeanShift(3, 3, kernel_size=(1, 1), stride=(1, 1))
  (head): Conv2d(3, 16, kernel_size=(3, 3), stride=(1, 1), padding=(1, 1))
  (down): ModuleList(
    (0): DownBlock(
      (dual_module): Sequential(
        (0): Sequential(
          (0): Conv2d(16, 16, kernel_size=(3, 3), stride=(2, 2), padding=(1, 1), bias=False)
          (1): LeakyReLU(negative_slope=0.2, inplace=True)
        )
        (1): Conv2d(16, 32, kernel_size=(3, 3), stride=(1, 1), padding=(1, 1), bias=False)
      )
    )
  )
  (up_blocks): ModuleList(
    (0): Sequential(
      (0): RCAB(
        (body): Sequential(
          (0): Conv2d(32, 32, kernel_size=(3, 3), stride=(1, 1), padding=(1, 1))
          (1): ReLU(inplace=True)
          (2): Conv2d(32, 32, kernel_size=(3, 3), stride=(1, 1), padding=(1, 1))
          (3): CALayer(
            (avg_pool): AdaptiveAvgPool2d(output_size=1)
            (conv_du): Sequential(
              (0): Conv2d(32, 2, kernel_size=(1, 1), stride=(1, 1))
              (1): ReLU(inplace=True)
              (2): Conv2d(2, 32, kernel_size=(1, 1), stride=(1, 1))
              (3): Sigmoid()
            )
          )
        )
      )
      (1): RCAB(
        (body): Sequential(
          (0): Conv2d(32, 32, kernel_size=(3, 3), stride=(1, 1), padding=(1, 1))
          (1): ReLU(inplace=True)
          (2): Conv2d(32, 32, kernel_size=(3, 3), stride=(1, 1), padding=(1, 1))
          (3): CALayer(
            (avg_pool): AdaptiveAvgPool2d(output_size=1)
            (conv_du): Sequential(
              (0): Conv2d(32, 2, kernel_size=(1, 1), stride=(1, 1))
              (1): ReLU(inplace=True)
              (2): Conv2d(2, 32, kernel_size=(1, 1), stride=(1, 1))
              (3): Sigmoid()
            )
          )
        )
      )
      (2): RCAB(
        (body): Sequential(
          (0): Conv2d(32, 32, kernel_size=(3, 3), stride=(1, 1), padding=(1, 1))
          (1): ReLU(inplace=True)
          (2): Conv2d(32, 32, kernel_size=(3, 3), stride=(1, 1), padding=(1, 1))
          (3): CALayer(
            (avg_pool): AdaptiveAvgPool2d(output_size=1)
            (conv_du): Sequential(
              (0): Conv2d(32, 2, kernel_size=(1, 1), stride=(1, 1))
              (1): ReLU(inplace=True)
              (2): Conv2d(2, 32, kernel_size=(1, 1), stride=(1, 1))
              (3): Sigmoid()
            )
          )
        )
      )
      (3): RCAB(
        (body): Sequential(
          (0): Conv2d(32, 32, kernel_size=(3, 3), stride=(1, 1), padding=(1, 1))
          (1): ReLU(inplace=True)
          (2): Conv2d(32, 32, kernel_size=(3, 3), stride=(1, 1), padding=(1, 1))
          (3): CALayer(
            (avg_pool): AdaptiveAvgPool2d(output_size=1)
            (conv_du): Sequential(
              (0): Conv2d(32, 2, kernel_size=(1, 1), stride=(1, 1))
              (1): ReLU(inplace=True)
              (2): Conv2d(2, 32, kernel_size=(1, 1), stride=(1, 1))
              (3): Sigmoid()
            )
          )
        )
      )
      (4): RCAB(
        (body): Sequential(
          (0): Conv2d(32, 32, kernel_size=(3, 3), stride=(1, 1), padding=(1, 1))
          (1): ReLU(inplace=True)
          (2): Conv2d(32, 32, kernel_size=(3, 3), stride=(1, 1), padding=(1, 1))
          (3): CALayer(
            (avg_pool): AdaptiveAvgPool2d(output_size=1)
            (conv_du): Sequential(
              (0): Conv2d(32, 2, kernel_size=(1, 1), stride=(1, 1))
              (1): ReLU(inplace=True)
              (2): Conv2d(2, 32, kernel_size=(1, 1), stride=(1, 1))
              (3): Sigmoid()
            )
          )
        )
      )
      (5): RCAB(
        (body): Sequential(
          (0): Conv2d(32, 32, kernel_size=(3, 3), stride=(1, 1), padding=(1, 1))
          (1): ReLU(inplace=True)
          (2): Conv2d(32, 32, kernel_size=(3, 3), stride=(1, 1), padding=(1, 1))
          (3): CALayer(
            (avg_pool): AdaptiveAvgPool2d(output_size=1)
            (conv_du): Sequential(
              (0): Conv2d(32, 2, kernel_size=(1, 1), stride=(1, 1))
              (1): ReLU(inplace=True)
              (2): Conv2d(2, 32, kernel_size=(1, 1), stride=(1, 1))
              (3): Sigmoid()
            )
          )
        )
      )
      (6): RCAB(
        (body): Sequential(
          (0): Conv2d(32, 32, kernel_size=(3, 3), stride=(1, 1), padding=(1, 1))
          (1): ReLU(inplace=True)
          (2): Conv2d(32, 32, kernel_size=(3, 3), stride=(1, 1), padding=(1, 1))
          (3): CALayer(
            (avg_pool): AdaptiveAvgPool2d(output_size=1)
            (conv_du): Sequential(
              (0): Conv2d(32, 2, kernel_size=(1, 1), stride=(1, 1))
              (1): ReLU(inplace=True)
              (2): Conv2d(2, 32, kernel_size=(1, 1), stride=(1, 1))
              (3): Sigmoid()
            )
          )
        )
      )
      (7): RCAB(
        (body): Sequential(
          (0): Conv2d(32, 32, kernel_size=(3, 3), stride=(1, 1), padding=(1, 1))
          (1): ReLU(inplace=True)
          (2): Conv2d(32, 32, kernel_size=(3, 3), stride=(1, 1), padding=(1, 1))
          (3): CALayer(
            (avg_pool): AdaptiveAvgPool2d(output_size=1)
            (conv_du): Sequential(
              (0): Conv2d(32, 2, kernel_size=(1, 1), stride=(1, 1))
              (1): ReLU(inplace=True)
              (2): Conv2d(2, 32, kernel_size=(1, 1), stride=(1, 1))
              (3): Sigmoid()
            )
          )
        )
      )
      (8): RCAB(
        (body): Sequential(
          (0): Conv2d(32, 32, kernel_size=(3, 3), stride=(1, 1), padding=(1, 1))
          (1): ReLU(inplace=True)
          (2): Conv2d(32, 32, kernel_size=(3, 3), stride=(1, 1), padding=(1, 1))
          (3): CALayer(
            (avg_pool): AdaptiveAvgPool2d(output_size=1)
            (conv_du): Sequential(
              (0): Conv2d(32, 2, kernel_size=(1, 1), stride=(1, 1))
              (1): ReLU(inplace=True)
              (2): Conv2d(2, 32, kernel_size=(1, 1), stride=(1, 1))
              (3): Sigmoid()
            )
          )
        )
      )
      (9): RCAB(
        (body): Sequential(
          (0): Conv2d(32, 32, kernel_size=(3, 3), stride=(1, 1), padding=(1, 1))
          (1): ReLU(inplace=True)
          (2): Conv2d(32, 32, kernel_size=(3, 3), stride=(1, 1), padding=(1, 1))
          (3): CALayer(
            (avg_pool): AdaptiveAvgPool2d(output_size=1)
            (conv_du): Sequential(
              (0): Conv2d(32, 2, kernel_size=(1, 1), stride=(1, 1))
              (1): ReLU(inplace=True)
              (2): Conv2d(2, 32, kernel_size=(1, 1), stride=(1, 1))
              (3): Sigmoid()
            )
          )
        )
      )
      (10): RCAB(
        (body): Sequential(
          (0): Conv2d(32, 32, kernel_size=(3, 3), stride=(1, 1), padding=(1, 1))
          (1): ReLU(inplace=True)
          (2): Conv2d(32, 32, kernel_size=(3, 3), stride=(1, 1), padding=(1, 1))
          (3): CALayer(
            (avg_pool): AdaptiveAvgPool2d(output_size=1)
            (conv_du): Sequential(
              (0): Conv2d(32, 2, kernel_size=(1, 1), stride=(1, 1))
              (1): ReLU(inplace=True)
              (2): Conv2d(2, 32, kernel_size=(1, 1), stride=(1, 1))
              (3): Sigmoid()
            )
          )
        )
      )
      (11): RCAB(
        (body): Sequential(
          (0): Conv2d(32, 32, kernel_size=(3, 3), stride=(1, 1), padding=(1, 1))
          (1): ReLU(inplace=True)
          (2): Conv2d(32, 32, kernel_size=(3, 3), stride=(1, 1), padding=(1, 1))
          (3): CALayer(
            (avg_pool): AdaptiveAvgPool2d(output_size=1)
            (conv_du): Sequential(
              (0): Conv2d(32, 2, kernel_size=(1, 1), stride=(1, 1))
              (1): ReLU(inplace=True)
              (2): Conv2d(2, 32, kernel_size=(1, 1), stride=(1, 1))
              (3): Sigmoid()
            )
          )
        )
      )
      (12): RCAB(
        (body): Sequential(
          (0): Conv2d(32, 32, kernel_size=(3, 3), stride=(1, 1), padding=(1, 1))
          (1): ReLU(inplace=True)
          (2): Conv2d(32, 32, kernel_size=(3, 3), stride=(1, 1), padding=(1, 1))
          (3): CALayer(
            (avg_pool): AdaptiveAvgPool2d(output_size=1)
            (conv_du): Sequential(
              (0): Conv2d(32, 2, kernel_size=(1, 1), stride=(1, 1))
              (1): ReLU(inplace=True)
              (2): Conv2d(2, 32, kernel_size=(1, 1), stride=(1, 1))
              (3): Sigmoid()
            )
          )
        )
      )
      (13): RCAB(
        (body): Sequential(
          (0): Conv2d(32, 32, kernel_size=(3, 3), stride=(1, 1), padding=(1, 1))
          (1): ReLU(inplace=True)
          (2): Conv2d(32, 32, kernel_size=(3, 3), stride=(1, 1), padding=(1, 1))
          (3): CALayer(
            (avg_pool): AdaptiveAvgPool2d(output_size=1)
            (conv_du): Sequential(
              (0): Conv2d(32, 2, kernel_size=(1, 1), stride=(1, 1))
              (1): ReLU(inplace=True)
              (2): Conv2d(2, 32, kernel_size=(1, 1), stride=(1, 1))
              (3): Sigmoid()
            )
          )
        )
      )
      (14): RCAB(
        (body): Sequential(
          (0): Conv2d(32, 32, kernel_size=(3, 3), stride=(1, 1), padding=(1, 1))
          (1): ReLU(inplace=True)
          (2): Conv2d(32, 32, kernel_size=(3, 3), stride=(1, 1), padding=(1, 1))
          (3): CALayer(
            (avg_pool): AdaptiveAvgPool2d(output_size=1)
            (conv_du): Sequential(
              (0): Conv2d(32, 2, kernel_size=(1, 1), stride=(1, 1))
              (1): ReLU(inplace=True)
              (2): Conv2d(2, 32, kernel_size=(1, 1), stride=(1, 1))
              (3): Sigmoid()
            )
          )
        )
      )
      (15): RCAB(
        (body): Sequential(
          (0): Conv2d(32, 32, kernel_size=(3, 3), stride=(1, 1), padding=(1, 1))
          (1): ReLU(inplace=True)
          (2): Conv2d(32, 32, kernel_size=(3, 3), stride=(1, 1), padding=(1, 1))
          (3): CALayer(
            (avg_pool): AdaptiveAvgPool2d(output_size=1)
            (conv_du): Sequential(
              (0): Conv2d(32, 2, kernel_size=(1, 1), stride=(1, 1))
              (1): ReLU(inplace=True)
              (2): Conv2d(2, 32, kernel_size=(1, 1), stride=(1, 1))
              (3): Sigmoid()
            )
          )
        )
      )
      (16): RCAB(
        (body): Sequential(
          (0): Conv2d(32, 32, kernel_size=(3, 3), stride=(1, 1), padding=(1, 1))
          (1): ReLU(inplace=True)
          (2): Conv2d(32, 32, kernel_size=(3, 3), stride=(1, 1), padding=(1, 1))
          (3): CALayer(
            (avg_pool): AdaptiveAvgPool2d(output_size=1)
            (conv_du): Sequential(
              (0): Conv2d(32, 2, kernel_size=(1, 1), stride=(1, 1))
              (1): ReLU(inplace=True)
              (2): Conv2d(2, 32, kernel_size=(1, 1), stride=(1, 1))
              (3): Sigmoid()
            )
          )
        )
      )
      (17): RCAB(
        (body): Sequential(
          (0): Conv2d(32, 32, kernel_size=(3, 3), stride=(1, 1), padding=(1, 1))
          (1): ReLU(inplace=True)
          (2): Conv2d(32, 32, kernel_size=(3, 3), stride=(1, 1), padding=(1, 1))
          (3): CALayer(
            (avg_pool): AdaptiveAvgPool2d(output_size=1)
            (conv_du): Sequential(
              (0): Conv2d(32, 2, kernel_size=(1, 1), stride=(1, 1))
              (1): ReLU(inplace=True)
              (2): Conv2d(2, 32, kernel_size=(1, 1), stride=(1, 1))
              (3): Sigmoid()
            )
          )
        )
      )
      (18): RCAB(
        (body): Sequential(
          (0): Conv2d(32, 32, kernel_size=(3, 3), stride=(1, 1), padding=(1, 1))
          (1): ReLU(inplace=True)
          (2): Conv2d(32, 32, kernel_size=(3, 3), stride=(1, 1), padding=(1, 1))
          (3): CALayer(
            (avg_pool): AdaptiveAvgPool2d(output_size=1)
            (conv_du): Sequential(
              (0): Conv2d(32, 2, kernel_size=(1, 1), stride=(1, 1))
              (1): ReLU(inplace=True)
              (2): Conv2d(2, 32, kernel_size=(1, 1), stride=(1, 1))
              (3): Sigmoid()
            )
          )
        )
      )
      (19): RCAB(
        (body): Sequential(
          (0): Conv2d(32, 32, kernel_size=(3, 3), stride=(1, 1), padding=(1, 1))
          (1): ReLU(inplace=True)
          (2): Conv2d(32, 32, kernel_size=(3, 3), stride=(1, 1), padding=(1, 1))
          (3): CALayer(
            (avg_pool): AdaptiveAvgPool2d(output_size=1)
            (conv_du): Sequential(
              (0): Conv2d(32, 2, kernel_size=(1, 1), stride=(1, 1))
              (1): ReLU(inplace=True)
              (2): Conv2d(2, 32, kernel_size=(1, 1), stride=(1, 1))
              (3): Sigmoid()
            )
          )
        )
      )
      (20): RCAB(
        (body): Sequential(
          (0): Conv2d(32, 32, kernel_size=(3, 3), stride=(1, 1), padding=(1, 1))
          (1): ReLU(inplace=True)
          (2): Conv2d(32, 32, kernel_size=(3, 3), stride=(1, 1), padding=(1, 1))
          (3): CALayer(
            (avg_pool): AdaptiveAvgPool2d(output_size=1)
            (conv_du): Sequential(
              (0): Conv2d(32, 2, kernel_size=(1, 1), stride=(1, 1))
              (1): ReLU(inplace=True)
              (2): Conv2d(2, 32, kernel_size=(1, 1), stride=(1, 1))
              (3): Sigmoid()
            )
          )
        )
      )
      (21): RCAB(
        (body): Sequential(
          (0): Conv2d(32, 32, kernel_size=(3, 3), stride=(1, 1), padding=(1, 1))
          (1): ReLU(inplace=True)
          (2): Conv2d(32, 32, kernel_size=(3, 3), stride=(1, 1), padding=(1, 1))
          (3): CALayer(
            (avg_pool): AdaptiveAvgPool2d(output_size=1)
            (conv_du): Sequential(
              (0): Conv2d(32, 2, kernel_size=(1, 1), stride=(1, 1))
              (1): ReLU(inplace=True)
              (2): Conv2d(2, 32, kernel_size=(1, 1), stride=(1, 1))
              (3): Sigmoid()
            )
          )
        )
      )
      (22): RCAB(
        (body): Sequential(
          (0): Conv2d(32, 32, kernel_size=(3, 3), stride=(1, 1), padding=(1, 1))
          (1): ReLU(inplace=True)
          (2): Conv2d(32, 32, kernel_size=(3, 3), stride=(1, 1), padding=(1, 1))
          (3): CALayer(
            (avg_pool): AdaptiveAvgPool2d(output_size=1)
            (conv_du): Sequential(
              (0): Conv2d(32, 2, kernel_size=(1, 1), stride=(1, 1))
              (1): ReLU(inplace=True)
              (2): Conv2d(2, 32, kernel_size=(1, 1), stride=(1, 1))
              (3): Sigmoid()
            )
          )
        )
      )
      (23): RCAB(
        (body): Sequential(
          (0): Conv2d(32, 32, kernel_size=(3, 3), stride=(1, 1), padding=(1, 1))
          (1): ReLU(inplace=True)
          (2): Conv2d(32, 32, kernel_size=(3, 3), stride=(1, 1), padding=(1, 1))
          (3): CALayer(
            (avg_pool): AdaptiveAvgPool2d(output_size=1)
            (conv_du): Sequential(
              (0): Conv2d(32, 2, kernel_size=(1, 1), stride=(1, 1))
              (1): ReLU(inplace=True)
              (2): Conv2d(2, 32, kernel_size=(1, 1), stride=(1, 1))
              (3): Sigmoid()
            )
          )
        )
      )
      (24): RCAB(
        (body): Sequential(
          (0): Conv2d(32, 32, kernel_size=(3, 3), stride=(1, 1), padding=(1, 1))
          (1): ReLU(inplace=True)
          (2): Conv2d(32, 32, kernel_size=(3, 3), stride=(1, 1), padding=(1, 1))
          (3): CALayer(
            (avg_pool): AdaptiveAvgPool2d(output_size=1)
            (conv_du): Sequential(
              (0): Conv2d(32, 2, kernel_size=(1, 1), stride=(1, 1))
              (1): ReLU(inplace=True)
              (2): Conv2d(2, 32, kernel_size=(1, 1), stride=(1, 1))
              (3): Sigmoid()
            )
          )
        )
      )
      (25): RCAB(
        (body): Sequential(
          (0): Conv2d(32, 32, kernel_size=(3, 3), stride=(1, 1), padding=(1, 1))
          (1): ReLU(inplace=True)
          (2): Conv2d(32, 32, kernel_size=(3, 3), stride=(1, 1), padding=(1, 1))
          (3): CALayer(
            (avg_pool): AdaptiveAvgPool2d(output_size=1)
            (conv_du): Sequential(
              (0): Conv2d(32, 2, kernel_size=(1, 1), stride=(1, 1))
              (1): ReLU(inplace=True)
              (2): Conv2d(2, 32, kernel_size=(1, 1), stride=(1, 1))
              (3): Sigmoid()
            )
          )
        )
      )
      (26): RCAB(
        (body): Sequential(
          (0): Conv2d(32, 32, kernel_size=(3, 3), stride=(1, 1), padding=(1, 1))
          (1): ReLU(inplace=True)
          (2): Conv2d(32, 32, kernel_size=(3, 3), stride=(1, 1), padding=(1, 1))
          (3): CALayer(
            (avg_pool): AdaptiveAvgPool2d(output_size=1)
            (conv_du): Sequential(
              (0): Conv2d(32, 2, kernel_size=(1, 1), stride=(1, 1))
              (1): ReLU(inplace=True)
              (2): Conv2d(2, 32, kernel_size=(1, 1), stride=(1, 1))
              (3): Sigmoid()
            )
          )
        )
      )
      (27): RCAB(
        (body): Sequential(
          (0): Conv2d(32, 32, kernel_size=(3, 3), stride=(1, 1), padding=(1, 1))
          (1): ReLU(inplace=True)
          (2): Conv2d(32, 32, kernel_size=(3, 3), stride=(1, 1), padding=(1, 1))
          (3): CALayer(
            (avg_pool): AdaptiveAvgPool2d(output_size=1)
…
          )
        )
      )
      (20): RCAB(
        (body): Sequential(
          (0): Conv2d(32, 32, kernel_size=(3, 3), stride=(1, 1), padding=(1, 1))
          (1): ReLU(inplace=True)
          (2): Conv2d(32, 32, kernel_size=(3, 3), stride=(1, 1), padding=(1, 1))
          (3): CALayer(
            (avg_pool): AdaptiveAvgPool2d(output_size=1)
            (conv_du): Sequential(
              (0): Conv2d(32, 2, kernel_size=(1, 1), stride=(1, 1))
              (1): ReLU(inplace=True)
              (2): Conv2d(2, 32, kernel_size=(1, 1), stride=(1, 1))
              (3): Sigmoid()
            )
          )
        )
      )
      (21): RCAB(
        (body): Sequential(
          (0): Conv2d(32, 32, kernel_size=(3, 3), stride=(1, 1), padding=(1, 1))
          (1): ReLU(inplace=True)
          (2): Conv2d(32, 32, kernel_size=(3, 3), stride=(1, 1), padding=(1, 1))
          (3): CALayer(
            (avg_pool): AdaptiveAvgPool2d(output_size=1)
            (conv_du): Sequential(
              (0): Conv2d(32, 2, kernel_size=(1, 1), stride=(1, 1))
              (1): ReLU(inplace=True)
              (2): Conv2d(2, 32, kernel_size=(1, 1), stride=(1, 1))
              (3): Sigmoid()
            )
          )
        )
      )
      (22): RCAB(
        (body): Sequential(
          (0): Conv2d(32, 32, kernel_size=(3, 3), stride=(1, 1), padding=(1, 1))
          (1): ReLU(inplace=True)
          (2): Conv2d(32, 32, kernel_size=(3, 3), stride=(1, 1), padding=(1, 1))
          (3): CALayer(
            (avg_pool): AdaptiveAvgPool2d(output_size=1)
            (conv_du): Sequential(
              (0): Conv2d(32, 2, kernel_size=(1, 1), stride=(1, 1))
              (1): ReLU(inplace=True)
              (2): Conv2d(2, 32, kernel_size=(1, 1), stride=(1, 1))
              (3): Sigmoid()
            )
          )
        )
      )
      (23): RCAB(
        (body): Sequential(
          (0): Conv2d(32, 32, kernel_size=(3, 3), stride=(1, 1), padding=(1, 1))
          (1): ReLU(inplace=True)
          (2): Conv2d(32, 32, kernel_size=(3, 3), stride=(1, 1), padding=(1, 1))
          (3): CALayer(
            (avg_pool): AdaptiveAvgPool2d(output_size=1)
            (conv_du): Sequential(
              (0): Conv2d(32, 2, kernel_size=(1, 1), stride=(1, 1))
              (1): ReLU(inplace=True)
              (2): Conv2d(2, 32, kernel_size=(1, 1), stride=(1, 1))
              (3): Sigmoid()
            )
          )
        )
      )
      (24): RCAB(
        (body): Sequential(
          (0): Conv2d(32, 32, kernel_size=(3, 3), stride=(1, 1), padding=(1, 1))
          (1): ReLU(inplace=True)
          (2): Conv2d(32, 32, kernel_size=(3, 3), stride=(1, 1), padding=(1, 1))
          (3): CALayer(
            (avg_pool): AdaptiveAvgPool2d(output_size=1)
            (conv_du): Sequential(
              (0): Conv2d(32, 2, kernel_size=(1, 1), stride=(1, 1))
              (1): ReLU(inplace=True)
              (2): Conv2d(2, 32, kernel_size=(1, 1), stride=(1, 1))
              (3): Sigmoid()
            )
          )
        )
      )
      (25): RCAB(
        (body): Sequential(
          (0): Conv2d(32, 32, kernel_size=(3, 3), stride=(1, 1), padding=(1, 1))
          (1): ReLU(inplace=True)
          (2): Conv2d(32, 32, kernel_size=(3, 3), stride=(1, 1), padding=(1, 1))
          (3): CALayer(
            (avg_pool): AdaptiveAvgPool2d(output_size=1)
            (conv_du): Sequential(
              (0): Conv2d(32, 2, kernel_size=(1, 1), stride=(1, 1))
              (1): ReLU(inplace=True)
              (2): Conv2d(2, 32, kernel_size=(1, 1), stride=(1, 1))
              (3): Sigmoid()
            )
          )
        )
      )
      (26): RCAB(
        (body): Sequential(
          (0): Conv2d(32, 32, kernel_size=(3, 3), stride=(1, 1), padding=(1, 1))
          (1): ReLU(inplace=True)
          (2): Conv2d(32, 32, kernel_size=(3, 3), stride=(1, 1), padding=(1, 1))
          (3): CALayer(
            (avg_pool): AdaptiveAvgPool2d(output_size=1)
            (conv_du): Sequential(
              (0): Conv2d(32, 2, kernel_size=(1, 1), stride=(1, 1))
              (1): ReLU(inplace=True)
              (2): Conv2d(2, 32, kernel_size=(1, 1), stride=(1, 1))
              (3): Sigmoid()
            )
          )
        )
      )
      (27): RCAB(
        (body): Sequential(
          (0): Conv2d(32, 32, kernel_size=(3, 3), stride=(1, 1), padding=(1, 1))
          (1): ReLU(inplace=True)
          (2): Conv2d(32, 32, kernel_size=(3, 3), stride=(1, 1), padding=(1, 1))
          (3): CALayer(
            (avg_pool): AdaptiveAvgPool2d(output_size=1)
            (conv_du): Sequential(
              (0): Conv2d(32, 2, kernel_size=(1, 1), stride=(1, 1))
              (1): ReLU(inplace=True)
              (2): Conv2d(2, 32, kernel_size=(1, 1), stride=(1, 1))
              (3): Sigmoid()
            )
          )
        )
      )
      (28): RCAB(
        (body): Sequential(
          (0): Conv2d(32, 32, kernel_size=(3, 3), stride=(1, 1), padding=(1, 1))
          (1): ReLU(inplace=True)
          (2): Conv2d(32, 32, kernel_size=(3, 3), stride=(1, 1), padding=(1, 1))
          (3): CALayer(
            (avg_pool): AdaptiveAvgPool2d(output_size=1)
            (conv_du): Sequential(
              (0): Conv2d(32, 2, kernel_size=(1, 1), stride=(1, 1))
              (1): ReLU(inplace=True)
              (2): Conv2d(2, 32, kernel_size=(1, 1), stride=(1, 1))
              (3): Sigmoid()
            )
          )
        )
      )
      (29): RCAB(
        (body): Sequential(
          (0): Conv2d(32, 32, kernel_size=(3, 3), stride=(1, 1), padding=(1, 1))
          (1): ReLU(inplace=True)
          (2): Conv2d(32, 32, kernel_size=(3, 3), stride=(1, 1), padding=(1, 1))
          (3): CALayer(
            (avg_pool): AdaptiveAvgPool2d(output_size=1)
            (conv_du): Sequential(
              (0): Conv2d(32, 2, kernel_size=(1, 1), stride=(1, 1))
              (1): ReLU(inplace=True)
              (2): Conv2d(2, 32, kernel_size=(1, 1), stride=(1, 1))
              (3): Sigmoid()
            )
          )
        )
      )
      (30): Upsampler(
        (0): Conv2d(32, 128, kernel_size=(3, 3), stride=(1, 1), padding=(1, 1))
        (1): PixelShuffle(upscale_factor=2)
      )
      (31): Conv2d(32, 16, kernel_size=(1, 1), stride=(1, 1))
    )
  )
  (tail): ModuleList(
    (0): Conv2d(32, 3, kernel_size=(3, 3), stride=(1, 1), padding=(1, 1))
    (1): Conv2d(32, 3, kernel_size=(3, 3), stride=(1, 1), padding=(1, 1))
  )
  (add_mean): MeanShift(3, 3, kernel_size=(1, 1), stride=(1, 1))
)
[DownBlock(
  (dual_module): Sequential(
    (0): Sequential(
      (0): Conv2d(3, 16, kernel_size=(3, 3), stride=(2, 2), padding=(1, 1), bias=False)
      (1): LeakyReLU(negative_slope=0.2, inplace=True)
    )
    (1): Conv2d(16, 3, kernel_size=(3, 3), stride=(1, 1), padding=(1, 1), bias=False)
  )
)]
The number of parameters is 1.21M
[Epoch 2]	Learning rate: 1.00e-4

Evaluation:
[face_test x2]	PSNR: 25.26 (Best: 25.26 @epoch 2)
Total time: 0.31s

DRN(
  (dct): DCT()
  (NewCNN): NewCNN(
    (RCAB1): RCAB(
      (body): Sequential(
        (0): Conv2d(32, 32, kernel_size=(3, 3), stride=(1, 1), padding=(1, 1))
        (1): ReLU(inplace=True)
        (2): Conv2d(32, 32, kernel_size=(3, 3), stride=(1, 1), padding=(1, 1))
        (3): CALayer(
          (avg_pool): AdaptiveAvgPool2d(output_size=1)
          (conv_du): Sequential(
            (0): Conv2d(32, 2, kernel_size=(1, 1), stride=(1, 1))
            (1): ReLU(inplace=True)
            (2): Conv2d(2, 32, kernel_size=(1, 1), stride=(1, 1))
            (3): Sigmoid()
          )
        )
      )
    )
    (RCAB2): RCAB(
      (body): Sequential(
        (0): Conv2d(64, 64, kernel_size=(3, 3), stride=(1, 1), padding=(1, 1))
        (1): ReLU(inplace=True)
        (2): Conv2d(64, 64, kernel_size=(3, 3), stride=(1, 1), padding=(1, 1))
        (3): CALayer(
          (avg_pool): AdaptiveAvgPool2d(output_size=1)
          (conv_du): Sequential(
            (0): Conv2d(64, 4, kernel_size=(1, 1), stride=(1, 1))
            (1): ReLU(inplace=True)
            (2): Conv2d(4, 64, kernel_size=(1, 1), stride=(1, 1))
            (3): Sigmoid()
          )
        )
      )
    )
    (RCAB3): RCAB(
      (body): Sequential(
        (0): Conv2d(128, 128, kernel_size=(3, 3), stride=(1, 1), padding=(1, 1))
        (1): ReLU(inplace=True)
        (2): Conv2d(128, 128, kernel_size=(3, 3), stride=(1, 1), padding=(1, 1))
        (3): CALayer(
          (avg_pool): AdaptiveAvgPool2d(output_size=1)
          (conv_du): Sequential(
            (0): Conv2d(128, 8, kernel_size=(1, 1), stride=(1, 1))
            (1): ReLU(inplace=True)
            (2): Conv2d(8, 128, kernel_size=(1, 1), stride=(1, 1))
            (3): Sigmoid()
          )
        )
      )
    )
    (conv1): Conv2d(3, 32, kernel_size=(9, 9), stride=(1, 1), padding=(4, 4))
    (conv2): Conv2d(256, 32, kernel_size=(5, 5), stride=(1, 1), padding=(2, 2))
    (conv3): Conv2d(32, 3, kernel_size=(5, 5), stride=(1, 1), padding=(2, 2))
    (tail): Conv2d(3, 3, kernel_size=(3, 3), stride=(1, 1), padding=(1, 1))
  )
  (upsample): Upsample(scale_factor=2.0, mode=bicubic)
  (sub_mean): MeanShift(3, 3, kernel_size=(1, 1), stride=(1, 1))
  (head): Conv2d(3, 16, kernel_size=(3, 3), stride=(1, 1), padding=(1, 1))
  (down): ModuleList(
    (0): DownBlock(
      (dual_module): Sequential(
        (0): Sequential(
          (0): Conv2d(16, 16, kernel_size=(3, 3), stride=(2, 2), padding=(1, 1), bias=False)
          (1): LeakyReLU(negative_slope=0.2, inplace=True)
        )
        (1): Conv2d(16, 32, kernel_size=(3, 3), stride=(1, 1), padding=(1, 1), bias=False)
      )
    )
  )
  (up_blocks): ModuleList(
    (0): Sequential(
      (0): RCAB(
        (body): Sequential(
          (0): Conv2d(32, 32, kernel_size=(3, 3), stride=(1, 1), padding=(1, 1))
          (1): ReLU(inplace=True)
          (2): Conv2d(32, 32, kernel_size=(3, 3), stride=(1, 1), padding=(1, 1))
          (3): CALayer(
            (avg_pool): AdaptiveAvgPool2d(output_size=1)
            (conv_du): Sequential(
              (0): Conv2d(32, 2, kernel_size=(1, 1), stride=(1, 1))
              (1): ReLU(inplace=True)
              (2): Conv2d(2, 32, kernel_size=(1, 1), stride=(1, 1))
              (3): Sigmoid()
            )
          )
        )
      )
      (1): RCAB(
        (body): Sequential(
          (0): Conv2d(32, 32, kernel_size=(3, 3), stride=(1, 1), padding=(1, 1))
          (1): ReLU(inplace=True)
          (2): Conv2d(32, 32, kernel_size=(3, 3), stride=(1, 1), padding=(1, 1))
          (3): CALayer(
            (avg_pool): AdaptiveAvgPool2d(output_size=1)
            (conv_du): Sequential(
              (0): Conv2d(32, 2, kernel_size=(1, 1), stride=(1, 1))
              (1): ReLU(inplace=True)
              (2): Conv2d(2, 32, kernel_size=(1, 1), stride=(1, 1))
              (3): Sigmoid()
            )
          )
        )
      )
      (2): RCAB(
        (body): Sequential(
          (0): Conv2d(32, 32, kernel_size=(3, 3), stride=(1, 1), padding=(1, 1))
          (1): ReLU(inplace=True)
          (2): Conv2d(32, 32, kernel_size=(3, 3), stride=(1, 1), padding=(1, 1))
          (3): CALayer(
            (avg_pool): AdaptiveAvgPool2d(output_size=1)
            (conv_du): Sequential(
              (0): Conv2d(32, 2, kernel_size=(1, 1), stride=(1, 1))
              (1): ReLU(inplace=True)
              (2): Conv2d(2, 32, kernel_size=(1, 1), stride=(1, 1))
              (3): Sigmoid()
            )
          )
        )
      )
      (3): RCAB(
        (body): Sequential(
          (0): Conv2d(32, 32, kernel_size=(3, 3), stride=(1, 1), padding=(1, 1))
          (1): ReLU(inplace=True)
          (2): Conv2d(32, 32, kernel_size=(3, 3), stride=(1, 1), padding=(1, 1))
          (3): CALayer(
            (avg_pool): AdaptiveAvgPool2d(output_size=1)
            (conv_du): Sequential(
              (0): Conv2d(32, 2, kernel_size=(1, 1), stride=(1, 1))
              (1): ReLU(inplace=True)
              (2): Conv2d(2, 32, kernel_size=(1, 1), stride=(1, 1))
              (3): Sigmoid()
            )
          )
        )
      )
      (4): RCAB(
        (body): Sequential(
          (0): Conv2d(32, 32, kernel_size=(3, 3), stride=(1, 1), padding=(1, 1))
          (1): ReLU(inplace=True)
          (2): Conv2d(32, 32, kernel_size=(3, 3), stride=(1, 1), padding=(1, 1))
          (3): CALayer(
            (avg_pool): AdaptiveAvgPool2d(output_size=1)
            (conv_du): Sequential(
              (0): Conv2d(32, 2, kernel_size=(1, 1), stride=(1, 1))
              (1): ReLU(inplace=True)
              (2): Conv2d(2, 32, kernel_size=(1, 1), stride=(1, 1))
              (3): Sigmoid()
            )
          )
        )
      )
      (5): RCAB(
        (body): Sequential(
          (0): Conv2d(32, 32, kernel_size=(3, 3), stride=(1, 1), padding=(1, 1))
          (1): ReLU(inplace=True)
          (2): Conv2d(32, 32, kernel_size=(3, 3), stride=(1, 1), padding=(1, 1))
          (3): CALayer(
            (avg_pool): AdaptiveAvgPool2d(output_size=1)
            (conv_du): Sequential(
              (0): Conv2d(32, 2, kernel_size=(1, 1), stride=(1, 1))
              (1): ReLU(inplace=True)
              (2): Conv2d(2, 32, kernel_size=(1, 1), stride=(1, 1))
              (3): Sigmoid()
            )
          )
        )
      )
      (6): RCAB(
        (body): Sequential(
          (0): Conv2d(32, 32, kernel_size=(3, 3), stride=(1, 1), padding=(1, 1))
          (1): ReLU(inplace=True)
          (2): Conv2d(32, 32, kernel_size=(3, 3), stride=(1, 1), padding=(1, 1))
          (3): CALayer(
            (avg_pool): AdaptiveAvgPool2d(output_size=1)
            (conv_du): Sequential(
              (0): Conv2d(32, 2, kernel_size=(1, 1), stride=(1, 1))
              (1): ReLU(inplace=True)
              (2): Conv2d(2, 32, kernel_size=(1, 1), stride=(1, 1))
              (3): Sigmoid()
            )
          )
        )
      )
      (7): RCAB(
        (body): Sequential(
          (0): Conv2d(32, 32, kernel_size=(3, 3), stride=(1, 1), padding=(1, 1))
          (1): ReLU(inplace=True)
          (2): Conv2d(32, 32, kernel_size=(3, 3), stride=(1, 1), padding=(1, 1))
          (3): CALayer(
            (avg_pool): AdaptiveAvgPool2d(output_size=1)
            (conv_du): Sequential(
              (0): Conv2d(32, 2, kernel_size=(1, 1), stride=(1, 1))
              (1): ReLU(inplace=True)
              (2): Conv2d(2, 32, kernel_size=(1, 1), stride=(1, 1))
              (3): Sigmoid()
            )
          )
        )
      )
      (8): RCAB(
        (body): Sequential(
          (0): Conv2d(32, 32, kernel_size=(3, 3), stride=(1, 1), padding=(1, 1))
          (1): ReLU(inplace=True)
          (2): Conv2d(32, 32, kernel_size=(3, 3), stride=(1, 1), padding=(1, 1))
          (3): CALayer(
            (avg_pool): AdaptiveAvgPool2d(output_size=1)
            (conv_du): Sequential(
              (0): Conv2d(32, 2, kernel_size=(1, 1), stride=(1, 1))
              (1): ReLU(inplace=True)
              (2): Conv2d(2, 32, kernel_size=(1, 1), stride=(1, 1))
              (3): Sigmoid()
            )
          )
        )
      )
      (9): RCAB(
        (body): Sequential(
          (0): Conv2d(32, 32, kernel_size=(3, 3), stride=(1, 1), padding=(1, 1))
          (1): ReLU(inplace=True)
          (2): Conv2d(32, 32, kernel_size=(3, 3), stride=(1, 1), padding=(1, 1))
          (3): CALayer(
            (avg_pool): AdaptiveAvgPool2d(output_size=1)
            (conv_du): Sequential(
              (0): Conv2d(32, 2, kernel_size=(1, 1), stride=(1, 1))
              (1): ReLU(inplace=True)
              (2): Conv2d(2, 32, kernel_size=(1, 1), stride=(1, 1))
              (3): Sigmoid()
            )
          )
        )
      )
      (10): RCAB(
        (body): Sequential(
          (0): Conv2d(32, 32, kernel_size=(3, 3), stride=(1, 1), padding=(1, 1))
          (1): ReLU(inplace=True)
          (2): Conv2d(32, 32, kernel_size=(3, 3), stride=(1, 1), padding=(1, 1))
          (3): CALayer(
            (avg_pool): AdaptiveAvgPool2d(output_size=1)
            (conv_du): Sequential(
              (0): Conv2d(32, 2, kernel_size=(1, 1), stride=(1, 1))
              (1): ReLU(inplace=True)
              (2): Conv2d(2, 32, kernel_size=(1, 1), stride=(1, 1))
              (3): Sigmoid()
            )
          )
        )
      )
      (11): RCAB(
        (body): Sequential(
          (0): Conv2d(32, 32, kernel_size=(3, 3), stride=(1, 1), padding=(1, 1))
          (1): ReLU(inplace=True)
          (2): Conv2d(32, 32, kernel_size=(3, 3), stride=(1, 1), padding=(1, 1))
          (3): CALayer(
            (avg_pool): AdaptiveAvgPool2d(output_size=1)
            (conv_du): Sequential(
              (0): Conv2d(32, 2, kernel_size=(1, 1), stride=(1, 1))
              (1): ReLU(inplace=True)
              (2): Conv2d(2, 32, kernel_size=(1, 1), stride=(1, 1))
              (3): Sigmoid()
            )
          )
        )
      )
      (12): RCAB(
        (body): Sequential(
          (0): Conv2d(32, 32, kernel_size=(3, 3), stride=(1, 1), padding=(1, 1))
          (1): ReLU(inplace=True)
          (2): Conv2d(32, 32, kernel_size=(3, 3), stride=(1, 1), padding=(1, 1))
          (3): CALayer(
            (avg_pool): AdaptiveAvgPool2d(output_size=1)
            (conv_du): Sequential(
              (0): Conv2d(32, 2, kernel_size=(1, 1), stride=(1, 1))
              (1): ReLU(inplace=True)
              (2): Conv2d(2, 32, kernel_size=(1, 1), stride=(1, 1))
              (3): Sigmoid()
            )
          )
        )
      )
      (13): RCAB(
        (body): Sequential(
          (0): Conv2d(32, 32, kernel_size=(3, 3), stride=(1, 1), padding=(1, 1))
          (1): ReLU(inplace=True)
          (2): Conv2d(32, 32, kernel_size=(3, 3), stride=(1, 1), padding=(1, 1))
          (3): CALayer(
            (avg_pool): AdaptiveAvgPool2d(output_size=1)
            (conv_du): Sequential(
              (0): Conv2d(32, 2, kernel_size=(1, 1), stride=(1, 1))
              (1): ReLU(inplace=True)
              (2): Conv2d(2, 32, kernel_size=(1, 1), stride=(1, 1))
              (3): Sigmoid()
            )
          )
        )
      )
      (14): RCAB(
        (body): Sequential(
          (0): Conv2d(32, 32, kernel_size=(3, 3), stride=(1, 1), padding=(1, 1))
          (1): ReLU(inplace=True)
          (2): Conv2d(32, 32, kernel_size=(3, 3), stride=(1, 1), padding=(1, 1))
          (3): CALayer(
            (avg_pool): AdaptiveAvgPool2d(output_size=1)
            (conv_du): Sequential(
              (0): Conv2d(32, 2, kernel_size=(1, 1), stride=(1, 1))
              (1): ReLU(inplace=True)
              (2): Conv2d(2, 32, kernel_size=(1, 1), stride=(1, 1))
              (3): Sigmoid()
            )
          )
        )
      )
      (15): RCAB(
        (body): Sequential(
          (0): Conv2d(32, 32, kernel_size=(3, 3), stride=(1, 1), padding=(1, 1))
          (1): ReLU(inplace=True)
          (2): Conv2d(32, 32, kernel_size=(3, 3), stride=(1, 1), padding=(1, 1))
          (3): CALayer(
            (avg_pool): AdaptiveAvgPool2d(output_size=1)
            (conv_du): Sequential(
              (0): Conv2d(32, 2, kernel_size=(1, 1), stride=(1, 1))
              (1): ReLU(inplace=True)
              (2): Conv2d(2, 32, kernel_size=(1, 1), stride=(1, 1))
              (3): Sigmoid()
            )
          )
        )
      )
      (16): RCAB(
        (body): Sequential(
          (0): Conv2d(32, 32, kernel_size=(3, 3), stride=(1, 1), padding=(1, 1))
          (1): ReLU(inplace=True)
          (2): Conv2d(32, 32, kernel_size=(3, 3), stride=(1, 1), padding=(1, 1))
          (3): CALayer(
            (avg_pool): AdaptiveAvgPool2d(output_size=1)
            (conv_du): Sequential(
              (0): Conv2d(32, 2, kernel_size=(1, 1), stride=(1, 1))
              (1): ReLU(inplace=True)
              (2): Conv2d(2, 32, kernel_size=(1, 1), stride=(1, 1))
              (3): Sigmoid()
            )
          )
        )
      )
      (17): RCAB(
        (body): Sequential(
          (0): Conv2d(32, 32, kernel_size=(3, 3), stride=(1, 1), padding=(1, 1))
          (1): ReLU(inplace=True)
          (2): Conv2d(32, 32, kernel_size=(3, 3), stride=(1, 1), padding=(1, 1))
          (3): CALayer(
            (avg_pool): AdaptiveAvgPool2d(output_size=1)
            (conv_du): Sequential(
              (0): Conv2d(32, 2, kernel_size=(1, 1), stride=(1, 1))
              (1): ReLU(inplace=True)
              (2): Conv2d(2, 32, kernel_size=(1, 1), stride=(1, 1))
              (3): Sigmoid()
            )
          )
        )
      )
      (18): RCAB(
        (body): Sequential(
          (0): Conv2d(32, 32, kernel_size=(3, 3), stride=(1, 1), padding=(1, 1))
          (1): ReLU(inplace=True)
          (2): Conv2d(32, 32, kernel_size=(3, 3), stride=(1, 1), padding=(1, 1))
          (3): CALayer(
            (avg_pool): AdaptiveAvgPool2d(output_size=1)
            (conv_du): Sequential(
              (0): Conv2d(32, 2, kernel_size=(1, 1), stride=(1, 1))
              (1): ReLU(inplace=True)
              (2): Conv2d(2, 32, kernel_size=(1, 1), stride=(1, 1))
              (3): Sigmoid()
            )
          )
        )
      )
      (19): RCAB(
        (body): Sequential(
          (0): Conv2d(32, 32, kernel_size=(3, 3), stride=(1, 1), padding=(1, 1))
          (1): ReLU(inplace=True)
          (2): Conv2d(32, 32, kernel_size=(3, 3), stride=(1, 1), padding=(1, 1))
          (3): CALayer(
            (avg_pool): AdaptiveAvgPool2d(output_size=1)
            (conv_du): Sequential(
              (0): Conv2d(32, 2, kernel_size=(1, 1), stride=(1, 1))
              (1): ReLU(inplace=True)
              (2): Conv2d(2, 32, kernel_size=(1, 1), stride=(1, 1))
              (3): Sigmoid()
            )
          )
        )
      )
      (20): RCAB(
        (body): Sequential(
          (0): Conv2d(32, 32, kernel_size=(3, 3), stride=(1, 1), padding=(1, 1))
          (1): ReLU(inplace=True)
          (2): Conv2d(32, 32, kernel_size=(3, 3), stride=(1, 1), padding=(1, 1))
          (3): CALayer(
            (avg_pool): AdaptiveAvgPool2d(output_size=1)
            (conv_du): Sequential(
              (0): Conv2d(32, 2, kernel_size=(1, 1), stride=(1, 1))
              (1): ReLU(inplace=True)
              (2): Conv2d(2, 32, kernel_size=(1, 1), stride=(1, 1))
              (3): Sigmoid()
            )
          )
        )
      )
      (21): RCAB(
        (body): Sequential(
          (0): Conv2d(32, 32, kernel_size=(3, 3), stride=(1, 1), padding=(1, 1))
          (1): ReLU(inplace=True)
          (2): Conv2d(32, 32, kernel_size=(3, 3), stride=(1, 1), padding=(1, 1))
          (3): CALayer(
            (avg_pool): AdaptiveAvgPool2d(output_size=1)
            (conv_du): Sequential(
              (0): Conv2d(32, 2, kernel_size=(1, 1), stride=(1, 1))
              (1): ReLU(inplace=True)
              (2): Conv2d(2, 32, kernel_size=(1, 1), stride=(1, 1))
              (3): Sigmoid()
            )
          )
        )
      )
      (22): RCAB(
        (body): Sequential(
          (0): Conv2d(32, 32, kernel_size=(3, 3), stride=(1, 1), padding=(1, 1))
          (1): ReLU(inplace=True)
          (2): Conv2d(32, 32, kernel_size=(3, 3), stride=(1, 1), padding=(1, 1))
          (3): CALayer(
            (avg_pool): AdaptiveAvgPool2d(output_size=1)
            (conv_du): Sequential(
              (0): Conv2d(32, 2, kernel_size=(1, 1), stride=(1, 1))
              (1): ReLU(inplace=True)
              (2): Conv2d(2, 32, kernel_size=(1, 1), stride=(1, 1))
              (3): Sigmoid()
            )
          )
        )
      )
      (23): RCAB(
        (body): Sequential(
          (0): Conv2d(32, 32, kernel_size=(3, 3), stride=(1, 1), padding=(1, 1))
          (1): ReLU(inplace=True)
          (2): Conv2d(32, 32, kernel_size=(3, 3), stride=(1, 1), padding=(1, 1))
          (3): CALayer(
            (avg_pool): AdaptiveAvgPool2d(output_size=1)
            (conv_du): Sequential(
              (0): Conv2d(32, 2, kernel_size=(1, 1), stride=(1, 1))
              (1): ReLU(inplace=True)
              (2): Conv2d(2, 32, kernel_size=(1, 1), stride=(1, 1))
              (3): Sigmoid()
            )
          )
        )
      )
      (24): RCAB(
        (body): Sequential(
          (0): Conv2d(32, 32, kernel_size=(3, 3), stride=(1, 1), padding=(1, 1))
          (1): ReLU(inplace=True)
          (2): Conv2d(32, 32, kernel_size=(3, 3), stride=(1, 1), padding=(1, 1))
          (3): CALayer(
            (avg_pool): AdaptiveAvgPool2d(output_size=1)
            (conv_du): Sequential(
              (0): Conv2d(32, 2, kernel_size=(1, 1), stride=(1, 1))
              (1): ReLU(inplace=True)
              (2): Conv2d(2, 32, kernel_size=(1, 1), stride=(1, 1))
              (3): Sigmoid()
            )
          )
        )
      )
      (25): RCAB(
        (body): Sequential(
          (0): Conv2d(32, 32, kernel_size=(3, 3), stride=(1, 1), padding=(1, 1))
          (1): ReLU(inplace=True)
          (2): Conv2d(32, 32, kernel_size=(3, 3), stride=(1, 1), padding=(1, 1))
          (3): CALayer(
            (avg_pool): AdaptiveAvgPool2d(output_size=1)
            (conv_du): Sequential(
              (0): Conv2d(32, 2, kernel_size=(1, 1), stride=(1, 1))
              (1): ReLU(inplace=True)
              (2): Conv2d(2, 32, kernel_size=(1, 1), stride=(1, 1))
              (3): Sigmoid()
            )
          )
        )
      )
      (26): RCAB(
        (body): Sequential(
          (0): Conv2d(32, 32, kernel_size=(3, 3), stride=(1, 1), padding=(1, 1))
          (1): ReLU(inplace=True)
          (2): Conv2d(32, 32, kernel_size=(3, 3), stride=(1, 1), padding=(1, 1))
          (3): CALayer(
            (avg_pool): AdaptiveAvgPool2d(output_size=1)
            (conv_du): Sequential(
              (0): Conv2d(32, 2, kernel_size=(1, 1), stride=(1, 1))
              (1): ReLU(inplace=True)
              (2): Conv2d(2, 32, kernel_size=(1, 1), stride=(1, 1))
              (3): Sigmoid()
            )
          )
        )
      )
      (27): RCAB(
        (body): Sequential(
          (0): Conv2d(32, 32, kernel_size=(3, 3), stride=(1, 1), padding=(1, 1))
          (1): ReLU(inplace=True)
          (2): Conv2d(32, 32, kernel_size=(3, 3), stride=(1, 1), padding=(1, 1))
          (3): CALayer(
            (avg_pool): AdaptiveAvgPool2d(output_size=1)
            (conv_du): Sequential(
              (0): Conv2d(32, 2, kernel_size=(1, 1), stride=(1, 1))
              (1): ReLU(inplace=True)
              (2): Conv2d(2, 32, kernel_size=(1, 1), stride=(1, 1))
              (3): Sigmoid()
            )
          )
        )
      )
      (28): RCAB(
        (body): Sequential(
          (0): Conv2d(32, 32, kernel_size=(3, 3), stride=(1, 1), padding=(1, 1))
          (1): ReLU(inplace=True)
          (2): Conv2d(32, 32, kernel_size=(3, 3), stride=(1, 1), padding=(1, 1))
          (3): CALayer(
            (avg_pool): AdaptiveAvgPool2d(output_size=1)
            (conv_du): Sequential(
              (0): Conv2d(32, 2, kernel_size=(1, 1), stride=(1, 1))
              (1): ReLU(inplace=True)
              (2): Conv2d(2, 32, kernel_size=(1, 1), stride=(1, 1))
              (3): Sigmoid()
            )
          )
        )
      )
      (29): RCAB(
        (body): Sequential(
          (0): Conv2d(32, 32, kernel_size=(3, 3), stride=(1, 1), padding=(1, 1))
          (1): ReLU(inplace=True)
          (2): Conv2d(32, 32, kernel_size=(3, 3), stride=(1, 1), padding=(1, 1))
          (3): CALayer(
            (avg_pool): AdaptiveAvgPool2d(output_size=1)
            (conv_du): Sequential(
              (0): Conv2d(32, 2, kernel_size=(1, 1), stride=(1, 1))
              (1): ReLU(inplace=True)
              (2): Conv2d(2, 32, kernel_size=(1, 1), stride=(1, 1))
              (3): Sigmoid()
            )
          )
        )
      )
      (30): Upsampler(
        (0): Conv2d(32, 128, kernel_size=(3, 3), stride=(1, 1), padding=(1, 1))
        (1): PixelShuffle(upscale_factor=2)
      )
      (31): Conv2d(32, 16, kernel_size=(1, 1), stride=(1, 1))
    )
  )
  (tail): ModuleList(
    (0): Conv2d(32, 3, kernel_size=(3, 3), stride=(1, 1), padding=(1, 1))
    (1): Conv2d(32, 3, kernel_size=(3, 3), stride=(1, 1), padding=(1, 1))
  )
  (add_mean): MeanShift(3, 3, kernel_size=(1, 1), stride=(1, 1))
)
[DownBlock(
  (dual_module): Sequential(
    (0): Sequential(
      (0): Conv2d(3, 16, kernel_size=(3, 3), stride=(2, 2), padding=(1, 1), bias=False)
      (1): LeakyReLU(negative_slope=0.2, inplace=True)
    )
    (1): Conv2d(16, 3, kernel_size=(3, 3), stride=(1, 1), padding=(1, 1), bias=False)
  )
)]
The number of parameters is 1.21M
[Epoch 3]	Learning rate: 1.00e-4

Evaluation:
DRN(
  (dct): DCT()
  (NewCNN): NewCNN(
    (RCAB1): RCAB(
      (body): Sequential(
        (0): Conv2d(32, 32, kernel_size=(3, 3), stride=(1, 1), padding=(1, 1))
        (1): ReLU(inplace=True)
        (2): Conv2d(32, 32, kernel_size=(3, 3), stride=(1, 1), padding=(1, 1))
        (3): CALayer(
          (avg_pool): AdaptiveAvgPool2d(output_size=1)
          (conv_du): Sequential(
            (0): Conv2d(32, 2, kernel_size=(1, 1), stride=(1, 1))
            (1): ReLU(inplace=True)
            (2): Conv2d(2, 32, kernel_size=(1, 1), stride=(1, 1))
            (3): Sigmoid()
          )
        )
      )
    )
    (RCAB2): RCAB(
      (body): Sequential(
        (0): Conv2d(64, 64, kernel_size=(3, 3), stride=(1, 1), padding=(1, 1))
        (1): ReLU(inplace=True)
        (2): Conv2d(64, 64, kernel_size=(3, 3), stride=(1, 1), padding=(1, 1))
        (3): CALayer(
          (avg_pool): AdaptiveAvgPool2d(output_size=1)
          (conv_du): Sequential(
            (0): Conv2d(64, 4, kernel_size=(1, 1), stride=(1, 1))
            (1): ReLU(inplace=True)
            (2): Conv2d(4, 64, kernel_size=(1, 1), stride=(1, 1))
            (3): Sigmoid()
          )
        )
      )
    )
    (RCAB3): RCAB(
      (body): Sequential(
        (0): Conv2d(128, 128, kernel_size=(3, 3), stride=(1, 1), padding=(1, 1))
        (1): ReLU(inplace=True)
        (2): Conv2d(128, 128, kernel_size=(3, 3), stride=(1, 1), padding=(1, 1))
        (3): CALayer(
          (avg_pool): AdaptiveAvgPool2d(output_size=1)
          (conv_du): Sequential(
            (0): Conv2d(128, 8, kernel_size=(1, 1), stride=(1, 1))
            (1): ReLU(inplace=True)
            (2): Conv2d(8, 128, kernel_size=(1, 1), stride=(1, 1))
            (3): Sigmoid()
          )
        )
      )
    )
    (conv1): Conv2d(3, 32, kernel_size=(9, 9), stride=(1, 1), padding=(4, 4))
    (conv2): Conv2d(256, 32, kernel_size=(5, 5), stride=(1, 1), padding=(2, 2))
    (conv3): Conv2d(32, 3, kernel_size=(5, 5), stride=(1, 1), padding=(2, 2))
    (tail): Conv2d(3, 3, kernel_size=(3, 3), stride=(1, 1), padding=(1, 1))
  )
  (upsample): Upsample(scale_factor=2.0, mode=bicubic)
  (sub_mean): MeanShift(3, 3, kernel_size=(1, 1), stride=(1, 1))
  (head): Conv2d(3, 16, kernel_size=(3, 3), stride=(1, 1), padding=(1, 1))
  (down): ModuleList(
    (0): DownBlock(
      (dual_module): Sequential(
        (0): Sequential(
          (0): Conv2d(16, 16, kernel_size=(3, 3), stride=(2, 2), padding=(1, 1), bias=False)
          (1): LeakyReLU(negative_slope=0.2, inplace=True)
        )
        (1): Conv2d(16, 32, kernel_size=(3, 3), stride=(1, 1), padding=(1, 1), bias=False)
      )
    )
  )
  (up_blocks): ModuleList(
    (0): Sequential(
      (0): RCAB(
        (body): Sequential(
          (0): Conv2d(32, 32, kernel_size=(3, 3), stride=(1, 1), padding=(1, 1))
          (1): ReLU(inplace=True)
          (2): Conv2d(32, 32, kernel_size=(3, 3), stride=(1, 1), padding=(1, 1))
          (3): CALayer(
            (avg_pool): AdaptiveAvgPool2d(output_size=1)
            (conv_du): Sequential(
              (0): Conv2d(32, 2, kernel_size=(1, 1), stride=(1, 1))
              (1): ReLU(inplace=True)
              (2): Conv2d(2, 32, kernel_size=(1, 1), stride=(1, 1))
              (3): Sigmoid()
            )
          )
        )
      )
      (1): RCAB(
        (body): Sequential(
          (0): Conv2d(32, 32, kernel_size=(3, 3), stride=(1, 1), padding=(1, 1))
          (1): ReLU(inplace=True)
          (2): Conv2d(32, 32, kernel_size=(3, 3), stride=(1, 1), padding=(1, 1))
          (3): CALayer(
            (avg_pool): AdaptiveAvgPool2d(output_size=1)
            (conv_du): Sequential(
              (0): Conv2d(32, 2, kernel_size=(1, 1), stride=(1, 1))
              (1): ReLU(inplace=True)
              (2): Conv2d(2, 32, kernel_size=(1, 1), stride=(1, 1))
              (3): Sigmoid()
            )
          )
        )
      )
      (2): RCAB(
        (body): Sequential(
          (0): Conv2d(32, 32, kernel_size=(3, 3), stride=(1, 1), padding=(1, 1))
          (1): ReLU(inplace=True)
          (2): Conv2d(32, 32, kernel_size=(3, 3), stride=(1, 1), padding=(1, 1))
          (3): CALayer(
            (avg_pool): AdaptiveAvgPool2d(output_size=1)
            (conv_du): Sequential(
              (0): Conv2d(32, 2, kernel_size=(1, 1), stride=(1, 1))
              (1): ReLU(inplace=True)
              (2): Conv2d(2, 32, kernel_size=(1, 1), stride=(1, 1))
              (3): Sigmoid()
            )
          )
        )
      )
      (3): RCAB(
        (body): Sequential(
          (0): Conv2d(32, 32, kernel_size=(3, 3), stride=(1, 1), padding=(1, 1))
          (1): ReLU(inplace=True)
          (2): Conv2d(32, 32, kernel_size=(3, 3), stride=(1, 1), padding=(1, 1))
          (3): CALayer(
            (avg_pool): AdaptiveAvgPool2d(output_size=1)
            (conv_du): Sequential(
              (0): Conv2d(32, 2, kernel_size=(1, 1), stride=(1, 1))
              (1): ReLU(inplace=True)
              (2): Conv2d(2, 32, kernel_size=(1, 1), stride=(1, 1))
              (3): Sigmoid()
            )
          )
        )
      )
      (4): RCAB(
        (body): Sequential(
          (0): Conv2d(32, 32, kernel_size=(3, 3), stride=(1, 1), padding=(1, 1))
          (1): ReLU(inplace=True)
          (2): Conv2d(32, 32, kernel_size=(3, 3), stride=(1, 1), padding=(1, 1))
          (3): CALayer(
            (avg_pool): AdaptiveAvgPool2d(output_size=1)
            (conv_du): Sequential(
              (0): Conv2d(32, 2, kernel_size=(1, 1), stride=(1, 1))
              (1): ReLU(inplace=True)
              (2): Conv2d(2, 32, kernel_size=(1, 1), stride=(1, 1))
              (3): Sigmoid()
            )
          )
        )
      )
      (5): RCAB(
        (body): Sequential(
          (0): Conv2d(32, 32, kernel_size=(3, 3), stride=(1, 1), padding=(1, 1))
          (1): ReLU(inplace=True)
          (2): Conv2d(32, 32, kernel_size=(3, 3), stride=(1, 1), padding=(1, 1))
          (3): CALayer(
            (avg_pool): AdaptiveAvgPool2d(output_size=1)
            (conv_du): Sequential(
              (0): Conv2d(32, 2, kernel_size=(1, 1), stride=(1, 1))
              (1): ReLU(inplace=True)
              (2): Conv2d(2, 32, kernel_size=(1, 1), stride=(1, 1))
              (3): Sigmoid()
            )
          )
        )
      )
      (6): RCAB(
        (body): Sequential(
          (0): Conv2d(32, 32, kernel_size=(3, 3), stride=(1, 1), padding=(1, 1))
          (1): ReLU(inplace=True)
          (2): Conv2d(32, 32, kernel_size=(3, 3), stride=(1, 1), padding=(1, 1))
          (3): CALayer(
            (avg_pool): AdaptiveAvgPool2d(output_size=1)
            (conv_du): Sequential(
              (0): Conv2d(32, 2, kernel_size=(1, 1), stride=(1, 1))
              (1): ReLU(inplace=True)
              (2): Conv2d(2, 32, kernel_size=(1, 1), stride=(1, 1))
              (3): Sigmoid()
            )
          )
        )
      )
      (7): RCAB(
        (body): Sequential(
          (0): Conv2d(32, 32, kernel_size=(3, 3), stride=(1, 1), padding=(1, 1))
          (1): ReLU(inplace=True)
          (2): Conv2d(32, 32, kernel_size=(3, 3), stride=(1, 1), padding=(1, 1))
          (3): CALayer(
            (avg_pool): AdaptiveAvgPool2d(output_size=1)
            (conv_du): Sequential(
              (0): Conv2d(32, 2, kernel_size=(1, 1), stride=(1, 1))
              (1): ReLU(inplace=True)
              (2): Conv2d(2, 32, kernel_size=(1, 1), stride=(1, 1))
              (3): Sigmoid()
            )
          )
        )
      )
      (8): RCAB(
        (body): Sequential(
          (0): Conv2d(32, 32, kernel_size=(3, 3), stride=(1, 1), padding=(1, 1))
          (1): ReLU(inplace=True)
          (2): Conv2d(32, 32, kernel_size=(3, 3), stride=(1, 1), padding=(1, 1))
          (3): CALayer(
            (avg_pool): AdaptiveAvgPool2d(output_size=1)
            (conv_du): Sequential(
              (0): Conv2d(32, 2, kernel_size=(1, 1), stride=(1, 1))
              (1): ReLU(inplace=True)
              (2): Conv2d(2, 32, kernel_size=(1, 1), stride=(1, 1))
              (3): Sigmoid()
            )
          )
        )
      )
      (9): RCAB(
        (body): Sequential(
          (0): Conv2d(32, 32, kernel_size=(3, 3), stride=(1, 1), padding=(1, 1))
          (1): ReLU(inplace=True)
          (2): Conv2d(32, 32, kernel_size=(3, 3), stride=(1, 1), padding=(1, 1))
          (3): CALayer(
            (avg_pool): AdaptiveAvgPool2d(output_size=1)
            (conv_du): Sequential(
              (0): Conv2d(32, 2, kernel_size=(1, 1), stride=(1, 1))
              (1): ReLU(inplace=True)
              (2): Conv2d(2, 32, kernel_size=(1, 1), stride=(1, 1))
              (3): Sigmoid()
            )
          )
        )
      )
      (10): RCAB(
        (body): Sequential(
          (0): Conv2d(32, 32, kernel_size=(3, 3), stride=(1, 1), padding=(1, 1))
          (1): ReLU(inplace=True)
          (2): Conv2d(32, 32, kernel_size=(3, 3), stride=(1, 1), padding=(1, 1))
          (3): CALayer(
            (avg_pool): AdaptiveAvgPool2d(output_size=1)
            (conv_du): Sequential(
              (0): Conv2d(32, 2, kernel_size=(1, 1), stride=(1, 1))
              (1): ReLU(inplace=True)
              (2): Conv2d(2, 32, kernel_size=(1, 1), stride=(1, 1))
              (3): Sigmoid()
            )
          )
        )
      )
      (11): RCAB(
        (body): Sequential(
          (0): Conv2d(32, 32, kernel_size=(3, 3), stride=(1, 1), padding=(1, 1))
          (1): ReLU(inplace=True)
          (2): Conv2d(32, 32, kernel_size=(3, 3), stride=(1, 1), padding=(1, 1))
          (3): CALayer(
            (avg_pool): AdaptiveAvgPool2d(output_size=1)
            (conv_du): Sequential(
              (0): Conv2d(32, 2, kernel_size=(1, 1), stride=(1, 1))
              (1): ReLU(inplace=True)
              (2): Conv2d(2, 32, kernel_size=(1, 1), stride=(1, 1))
              (3): Sigmoid()
            )
          )
        )
      )
      (12): RCAB(
        (body): Sequential(
          (0): Conv2d(32, 32, kernel_size=(3, 3), stride=(1, 1), padding=(1, 1))
          (1): ReLU(inplace=True)
          (2): Conv2d(32, 32, kernel_size=(3, 3), stride=(1, 1), padding=(1, 1))
          (3): CALayer(
            (avg_pool): AdaptiveAvgPool2d(output_size=1)
            (conv_du): Sequential(
              (0): Conv2d(32, 2, kernel_size=(1, 1), stride=(1, 1))
              (1): ReLU(inplace=True)
              (2): Conv2d(2, 32, kernel_size=(1, 1), stride=(1, 1))
              (3): Sigmoid()
            )
          )
        )
      )
      (13): RCAB(
        (body): Sequential(
          (0): Conv2d(32, 32, kernel_size=(3, 3), stride=(1, 1), padding=(1, 1))
          (1): ReLU(inplace=True)
          (2): Conv2d(32, 32, kernel_size=(3, 3), stride=(1, 1), padding=(1, 1))
          (3): CALayer(
            (avg_pool): AdaptiveAvgPool2d(output_size=1)
            (conv_du): Sequential(
              (0): Conv2d(32, 2, kernel_size=(1, 1), stride=(1, 1))
              (1): ReLU(inplace=True)
              (2): Conv2d(2, 32, kernel_size=(1, 1), stride=(1, 1))
              (3): Sigmoid()
            )
          )
        )
      )
      (14): RCAB(
        (body): Sequential(
          (0): Conv2d(32, 32, kernel_size=(3, 3), stride=(1, 1), padding=(1, 1))
          (1): ReLU(inplace=True)
          (2): Conv2d(32, 32, kernel_size=(3, 3), stride=(1, 1), padding=(1, 1))
          (3): CALayer(
            (avg_pool): AdaptiveAvgPool2d(output_size=1)
            (conv_du): Sequential(
              (0): Conv2d(32, 2, kernel_size=(1, 1), stride=(1, 1))
              (1): ReLU(inplace=True)
              (2): Conv2d(2, 32, kernel_size=(1, 1), stride=(1, 1))
              (3): Sigmoid()
            )
          )
        )
      )
      (15): RCAB(
        (body): Sequential(
          (0): Conv2d(32, 32, kernel_size=(3, 3), stride=(1, 1), padding=(1, 1))
          (1): ReLU(inplace=True)
          (2): Conv2d(32, 32, kernel_size=(3, 3), stride=(1, 1), padding=(1, 1))
          (3): CALayer(
            (avg_pool): AdaptiveAvgPool2d(output_size=1)
            (conv_du): Sequential(
              (0): Conv2d(32, 2, kernel_size=(1, 1), stride=(1, 1))
              (1): ReLU(inplace=True)
              (2): Conv2d(2, 32, kernel_size=(1, 1), stride=(1, 1))
              (3): Sigmoid()
            )
          )
        )
      )
      (16): RCAB(
        (body): Sequential(
          (0): Conv2d(32, 32, kernel_size=(3, 3), stride=(1, 1), padding=(1, 1))
          (1): ReLU(inplace=True)
          (2): Conv2d(32, 32, kernel_size=(3, 3), stride=(1, 1), padding=(1, 1))
          (3): CALayer(
            (avg_pool): AdaptiveAvgPool2d(output_size=1)
            (conv_du): Sequential(
              (0): Conv2d(32, 2, kernel_size=(1, 1), stride=(1, 1))
              (1): ReLU(inplace=True)
              (2): Conv2d(2, 32, kernel_size=(1, 1), stride=(1, 1))
              (3): Sigmoid()
            )
          )
        )
      )
      (17): RCAB(
        (body): Sequential(
          (0): Conv2d(32, 32, kernel_size=(3, 3), stride=(1, 1), padding=(1, 1))
          (1): ReLU(inplace=True)
          (2): Conv2d(32, 32, kernel_size=(3, 3), stride=(1, 1), padding=(1, 1))
          (3): CALayer(
            (avg_pool): AdaptiveAvgPool2d(output_size=1)
            (conv_du): Sequential(
              (0): Conv2d(32, 2, kernel_size=(1, 1), stride=(1, 1))
              (1): ReLU(inplace=True)
              (2): Conv2d(2, 32, kernel_size=(1, 1), stride=(1, 1))
              (3): Sigmoid()
            )
          )
        )
      )
      (18): RCAB(
        (body): Sequential(
          (0): Conv2d(32, 32, kernel_size=(3, 3), stride=(1, 1), padding=(1, 1))
          (1): ReLU(inplace=True)
          (2): Conv2d(32, 32, kernel_size=(3, 3), stride=(1, 1), padding=(1, 1))
          (3): CALayer(
            (avg_pool): AdaptiveAvgPool2d(output_size=1)
            (conv_du): Sequential(
              (0): Conv2d(32, 2, kernel_size=(1, 1), stride=(1, 1))
              (1): ReLU(inplace=True)
              (2): Conv2d(2, 32, kernel_size=(1, 1), stride=(1, 1))
              (3): Sigmoid()
            )
          )
        )
      )
      (19): RCAB(
        (body): Sequential(
          (0): Conv2d(32, 32, kernel_size=(3, 3), stride=(1, 1), padding=(1, 1))
          (1): ReLU(inplace=True)
          (2): Conv2d(32, 32, kernel_size=(3, 3), stride=(1, 1), padding=(1, 1))
          (3): CALayer(
            (avg_pool): AdaptiveAvgPool2d(output_size=1)
            (conv_du): Sequential(
              (0): Conv2d(32, 2, kernel_size=(1, 1), stride=(1, 1))
              (1): ReLU(inplace=True)
              (2): Conv2d(2, 32, kernel_size=(1, 1), stride=(1, 1))
              (3): Sigmoid()
            )
          )
        )
      )
      (20): RCAB(
        (body): Sequential(
          (0): Conv2d(32, 32, kernel_size=(3, 3), stride=(1, 1), padding=(1, 1))
          (1): ReLU(inplace=True)
          (2): Conv2d(32, 32, kernel_size=(3, 3), stride=(1, 1), padding=(1, 1))
          (3): CALayer(
            (avg_pool): AdaptiveAvgPool2d(output_size=1)
            (conv_du): Sequential(
              (0): Conv2d(32, 2, kernel_size=(1, 1), stride=(1, 1))
              (1): ReLU(inplace=True)
              (2): Conv2d(2, 32, kernel_size=(1, 1), stride=(1, 1))
              (3): Sigmoid()
            )
          )
        )
      )
      (21): RCAB(
        (body): Sequential(
          (0): Conv2d(32, 32, kernel_size=(3, 3), stride=(1, 1), padding=(1, 1))
          (1): ReLU(inplace=True)
          (2): Conv2d(32, 32, kernel_size=(3, 3), stride=(1, 1), padding=(1, 1))
          (3): CALayer(
            (avg_pool): AdaptiveAvgPool2d(output_size=1)
            (conv_du): Sequential(
              (0): Conv2d(32, 2, kernel_size=(1, 1), stride=(1, 1))
              (1): ReLU(inplace=True)
              (2): Conv2d(2, 32, kernel_size=(1, 1), stride=(1, 1))
              (3): Sigmoid()
            )
          )
        )
      )
      (22): RCAB(
        (body): Sequential(
          (0): Conv2d(32, 32, kernel_size=(3, 3), stride=(1, 1), padding=(1, 1))
          (1): ReLU(inplace=True)
          (2): Conv2d(32, 32, kernel_size=(3, 3), stride=(1, 1), padding=(1, 1))
          (3): CALayer(
            (avg_pool): AdaptiveAvgPool2d(output_size=1)
            (conv_du): Sequential(
              (0): Conv2d(32, 2, kernel_size=(1, 1), stride=(1, 1))
              (1): ReLU(inplace=True)
              (2): Conv2d(2, 32, kernel_size=(1, 1), stride=(1, 1))
              (3): Sigmoid()
            )
          )
        )
      )
      (23): RCAB(
        (body): Sequential(
          (0): Conv2d(32, 32, kernel_size=(3, 3), stride=(1, 1), padding=(1, 1))
          (1): ReLU(inplace=True)
          (2): Conv2d(32, 32, kernel_size=(3, 3), stride=(1, 1), padding=(1, 1))
          (3): CALayer(
            (avg_pool): AdaptiveAvgPool2d(output_size=1)
            (conv_du): Sequential(
              (0): Conv2d(32, 2, kernel_size=(1, 1), stride=(1, 1))
              (1): ReLU(inplace=True)
              (2): Conv2d(2, 32, kernel_size=(1, 1), stride=(1, 1))
              (3): Sigmoid()
            )
          )
        )
      )
      (24): RCAB(
        (body): Sequential(
          (0): Conv2d(32, 32, kernel_size=(3, 3), stride=(1, 1), padding=(1, 1))
          (1): ReLU(inplace=True)
          (2): Conv2d(32, 32, kernel_size=(3, 3), stride=(1, 1), padding=(1, 1))
          (3): CALayer(
            (avg_pool): AdaptiveAvgPool2d(output_size=1)
            (conv_du): Sequential(
              (0): Conv2d(32, 2, kernel_size=(1, 1), stride=(1, 1))
              (1): ReLU(inplace=True)
              (2): Conv2d(2, 32, kernel_size=(1, 1), stride=(1, 1))
              (3): Sigmoid()
            )
          )
        )
      )
      (25): RCAB(
        (body): Sequential(
          (0): Conv2d(32, 32, kernel_size=(3, 3), stride=(1, 1), padding=(1, 1))
          (1): ReLU(inplace=True)
          (2): Conv2d(32, 32, kernel_size=(3, 3), stride=(1, 1), padding=(1, 1))
          (3): CALayer(
            (avg_pool): AdaptiveAvgPool2d(output_size=1)
            (conv_du): Sequential(
              (0): Conv2d(32, 2, kernel_size=(1, 1), stride=(1, 1))
              (1): ReLU(inplace=True)
              (2): Conv2d(2, 32, kernel_size=(1, 1), stride=(1, 1))
              (3): Sigmoid()
            )
          )
        )
      )
      (26): RCAB(
        (body): Sequential(
          (0): Conv2d(32, 32, kernel_size=(3, 3), stride=(1, 1), padding=(1, 1))
          (1): ReLU(inplace=True)
          (2): Conv2d(32, 32, kernel_size=(3, 3), stride=(1, 1), padding=(1, 1))
          (3): CALayer(
            (avg_pool): AdaptiveAvgPool2d(output_size=1)
            (conv_du): Sequential(
              (0): Conv2d(32, 2, kernel_size=(1, 1), stride=(1, 1))
              (1): ReLU(inplace=True)
              (2): Conv2d(2, 32, kernel_size=(1, 1), stride=(1, 1))
              (3): Sigmoid()
            )
          )
        )
      )
      (27): RCAB(
        (body): Sequential(
          (0): Conv2d(32, 32, kernel_size=(3, 3), stride=(1, 1), padding=(1, 1))
          (1): ReLU(inplace=True)
          (2): Conv2d(32, 32, kernel_size=(3, 3), stride=(1, 1), padding=(1, 1))
          (3): CALayer(
            (avg_pool): AdaptiveAvgPool2d(output_size=1)
            (conv_du): Sequential(
              (0): Conv2d(32, 2, kernel_size=(1, 1), stride=(1, 1))
              (1): ReLU(inplace=True)
              (2): Conv2d(2, 32, kernel_size=(1, 1), stride=(1, 1))
              (3): Sigmoid()
            )
          )
        )
      )
      (28): RCAB(
        (body): Sequential(
          (0): Conv2d(32, 32, kernel_size=(3, 3), stride=(1, 1), padding=(1, 1))
          (1): ReLU(inplace=True)
          (2): Conv2d(32, 32, kernel_size=(3, 3), stride=(1, 1), padding=(1, 1))
          (3): CALayer(
            (avg_pool): AdaptiveAvgPool2d(output_size=1)
            (conv_du): Sequential(
              (0): Conv2d(32, 2, kernel_size=(1, 1), stride=(1, 1))
              (1): ReLU(inplace=True)
              (2): Conv2d(2, 32, kernel_size=(1, 1), stride=(1, 1))
              (3): Sigmoid()
            )
          )
        )
      )
      (29): RCAB(
        (body): Sequential(
          (0): Conv2d(32, 32, kernel_size=(3, 3), stride=(1, 1), padding=(1, 1))
          (1): ReLU(inplace=True)
          (2): Conv2d(32, 32, kernel_size=(3, 3), stride=(1, 1), padding=(1, 1))
          (3): CALayer(
            (avg_pool): AdaptiveAvgPool2d(output_size=1)
            (conv_du): Sequential(
              (0): Conv2d(32, 2, kernel_size=(1, 1), stride=(1, 1))
              (1): ReLU(inplace=True)
              (2): Conv2d(2, 32, kernel_size=(1, 1), stride=(1, 1))
              (3): Sigmoid()
            )
          )
        )
      )
      (30): Upsampler(
        (0): Conv2d(32, 128, kernel_size=(3, 3), stride=(1, 1), padding=(1, 1))
        (1): PixelShuffle(upscale_factor=2)
      )
      (31): Conv2d(32, 16, kernel_size=(1, 1), stride=(1, 1))
    )
  )
  (tail): ModuleList(
    (0): Conv2d(32, 3, kernel_size=(3, 3), stride=(1, 1), padding=(1, 1))
    (1): Conv2d(32, 3, kernel_size=(3, 3), stride=(1, 1), padding=(1, 1))
  )
  (add_mean): MeanShift(3, 3, kernel_size=(1, 1), stride=(1, 1))
)